imlonetwork.pth (torch, 252037 bytes, 10 tensors)

conv1.weight f4 [6, 3, 5, 5]
0.05700881 0.04934843 -0.031829648 -0.03797208 -0.042345293 -0.11585185 0.08299591 0.1712484
-0.03542017 -0.058389463 -0.10523201 0.03660514 0.071109556 0.05812688 0.07025693 -0.002998668
0.0036509675 -0.036636602 0.016382612 0.03132277 0.044544514 -0.028352266 -0.059580997 -0.13063176
-0.013486381 -0.081128396 0.074406855 0.1336172 0.08652717 -0.09805384 -0.014751355 0.08515859
0.16100928 0.114689104 -0.008578032 -0.07552938 -0.0559408 0.07922866 0.064436674 -0.09597807
-0.029459288 -0.06892259 0.071313985 -0.09758769 -0.09769041 0.013246896 -0.11888338 -0.14237237
-0.08726214 -0.0940194 -0.0012214669 0.14258543 0.24946018 0.17618082 0.16160408 0.13329029
0.10198103 0.35067376 0.35519066 0.22325137 0.08156398 0.26132435 0.16372441 0.20556922
0.13072713 0.15145452 -0.023805538 0.19274552 0.18322009 0.052871376 0.0044319965 0.056880224
0.15662548 0.0695019 0.09018174 0.25531608 0.34504268 0.16844305 0.104275 0.13819437
0.06571027 0.06549266 0.11495064 0.0058846134 0.20109831 0.06451832 -0.15187845 -0.1935411
-0.11378984 0.27492595 -0.11701286 -0.36728105 -0.30392814 -0.17419618 0.052987985 -0.16887674
-0.28233424 -0.36823678 -0.05850122 -0.050148007 -0.078412004 -0.12046245 -0.07028135 -0.097185455
-0.06485193 -0.1606767 -0.1283499 -0.06492415 -0.20929272 0.07509935 -0.15519223 -0.24431416
-0.23152149 -0.12155784 0.18396512 -0.08110091 -0.31127885 -0.12304445 -0.035539802 0.19727123
0.02809289 -0.17421208 -0.22545548 0.0004243897 0.20585153 -0.12995324 -0.10460838 -0.12085665
-0.019276412 -0.102695584 -0.027500413 -0.15431762 -0.17712165 -0.006161093 -0.00075597607 -0.016457558
-0.25571004 -0.16618602 -0.032032758 0.14064382 -0.083670855 -0.258382 -0.19162235 -0.024379876
0.29981956 0.17429823 -0.010954257 -0.11967668 0.078693844 0.068393864 0.07199155 -0.10166191
-0.08589524 0.07816758 -0.046140328 0.038690116 0.021900492 -0.24383329 0.10712292 0.08126289
0.26626933 0.033217996 -0.41965476 0.098576024 0.12822045 0.20122723 0.09856471 -0.37673944
0.057962142 0.11800592 0.1252416 -0.12055446 -0.35275882 -0.06671294 0.068359 0.1542695
0.047535058 -0.12302015 0.06747112 0.013210732 0.28802967 -0.13699973 -0.35159466 -0.045021057
0.042052615 0.32294106 -0.08835212 -0.45908853 0.045910787 0.1776441 0.36711878 0.080422
-0.45954198 0.040332217 0.2877477 0.24749282 -0.08176157 -0.28657335 -0.047972973 0.07483957
0.029157802 -0.11607755 -0.12382207 -0.080921076 0.07255125 0.19456081 -0.058253996 -0.25843027
0.17908001 0.05818142 0.26796824 0.018419458 -0.39901692 0.0036574486 0.24297333 0.23263219
0.09543012 -0.42358556 0.039521202 0.20137835 0.052761443 0.11372755 -0.30743924 -0.07198283
0.1636835 -0.19320983 0.06612365 0.13142225 -0.31445622 -0.25420585 -0.12603287 -0.10997871
-0.21579574 0.07276477 0.16153656 -0.06400531 -0.38565192 -0.23901695 0.123949334 0.16913131
0.09357868 0.08492235 0.054361764 0.10180593 -0.13749623 0.115416154 0.25715822 0.20359318
-0.21864823 -0.2530212 -0.06878224 0.2828784 0.09664665 -0.15632911 -0.020616706 0.010232704
00000000: 1282 693d 9421 4a3d ce5f 02bd 9d88 1bbd
00000010: 4272 2dbd bc43 edbd c2f9 a93d be5b 2f3e
00000020: bd14 11bd ca29 6fbd e183 d7bd 45ef 153d
00000030: e3a1 913d 7416 6e3d dee2 8f3d 4d85 44bb
00000040: 1245 6f3b 4310 16bd d434 863c 4e4c 003d
00000050: 4f74 363d 0343 e8bc 340b 74bd 55c4 05be
00000060: fbf5 5cbc a526 a6bd 9f62 983d f3d2 083e
00000070: 2835 b13d 74d0 c8bd abaf 71bc a067 ae3d
00000080: 9edf 243e 1fe2 ea3d e08a 0cbc 26af 9abd
00000090: 2e22 65bd a342 a23d 60f7 833d 2690 c4bd
000000a0: 9b54 f1bc 4927 8dbd 110d 923d 0edc c7bd
000000b0: e911 c8bd 8209 593c 2179 f3bd 10ca 11be
000000c0: 7eb6 b2bd 3e8d c0bd a119 a0ba ea01 123e
000000d0: 7d72 7f3e bf68 343e 8a7b 253e 407d 083e
000000e0: 6edb d03d 838b b33e 8ddb b53e 029c 643e
000000f0: 040b a73d 4ecc 853e 5fa7 273e bd80 523e
00000100: 55dd 053e e516 1b3e d503 c3bc 155f 453e
00000110: 0c9e 3b3e a88f 583d 483a 913b 3dfb 683d
00000120: 6e62 203e 0357 8e3d 34b1 b83d cab8 823e
00000130: 6fa9 b03e 567c 2c3e 228e d53d d382 0d3e
00000140: 1b93 863d 0421 863d 3e6b eb3d b7d3 c03b
00000150: b7ec 4d3e 2e22 843d 0686 1bbe a32f 46be
00000160: a60a e9bd 18c3 8c3e 70a4 efbd 430c bcbe
00000170: 789c 9bbe 7c60 32be ee09 593d 06ee 2cbe
00000180: 1d8e 90be 8889 bcbe fa9e 6fbd ff67 4dbd
00000190: 7996 a0bd 04b5 f6bd abef 8fbd 2b09 c7bd
000001a0: 17d1 84bd 6f88 24be 286e 03be f4f6 84bd
000001b0: d550 56be b0cd 993d b6ea 1ebe 7e2d 7abe
000001c0: f813 6dbe 51f3 f8bd 5a61 3c3e 3c18 a6bd
000001d0: f15f 9fbe bbfe fbbd 2f92 11bd 7801 4a3e
000001e0: 0f23 e63c a764 32be cddd 66be 9f80 de39
000001f0: beca 523e 7612 05be eb3c d6bd b183 f7bd
00000200: 91e9 9dbc 1052 d2bd 8c48 e1bc 7005 1ebe
00000210: 615f 35be fee2 c9bb b22c 46ba 00d2 86bc
00000220: 6dec 82be ab2c 2abe c834 03bd ef04 103e
00000230: a05b abbd a54a 84be a638 44be 4eb8 c7bc
00000240: f381 993e 3c7b 323e 7c79 33bc 0c19 f5bd
00000250: 3d2a a13d 1512 8c3d 4e70 933d 1f34 d0bd
00000260: d8e9 afbd 5316 a03d a4fd 3cbd 8779 1e3d
00000270: a968 b33c 6faf 79be 4363 db3d 286d a63d
00000280: 7454 883e 980f 083d fddc d6be 3ae2 c93d
00000290: 394c 033e 830e 4e3e 4bdc c93d fee3 c0be
000002a0: b669 6d3d 16ad f13d 563f 003e 42e5 f6bd
000002b0: ce9c b4be cba0 88bd ceff 8b3d d3f8 1d3e
000002c0: 1fb4 423d fdf1 fbbd 4c2e 8a3d d371 583c
000002d0: a078 933e a849 0cbe 3704 b4be 0068 38bd
000002e0: 5d3f 2c3d 8858 a53e f5f1 b4bd a70d ebbe
000002f0: f30c 3c3d 56e8 353e fef6 bb3e 4ab4 a43d
00000300: 1649 ebbe 6533 253d ab53 933e c26e 7d3e
00000310: 9c72 a7bd beb9 92be 4f7f 44bd 7d45 993d
00000320: 58dc ee3c 11ba edbd 6d96 fdbd f3b9 a5bd
00000330: c095 943d f33a 473e be9b 6ebd f950 84be
00000340: c060 373e a44f 6e3d 2233 893e 67e4 963c
00000350: f24b ccbe ceb1 6f3b 00ce 783e 2237 6e3e
00000360: de70 c33d 35e0 d8be fce0 213d 2036 4e3e
00000370: 621c 583d fde9 e83d ad68 9dbe bc6b 93bd
00000380: a69c 273e ccd8 45be d66b 873d 8e93 063e
00000390: 6800 a1be 4527 82be c30e 01be 853c e1bd
000003a0: 8ff9 5cbe b205 953d d769 253e 3715 83bd
000003b0: 2b74 c5be dcc0 74be 26d9 fd3d c230 2d3e
000003c0: 2ea6 bf3d c5eb ad3d 71aa 5e3d a17f d03d
000003d0: d0cb 0cbe 4e5f ec3d 3eaa 833e bb7a 503e
000003e0: 52e5 5fbe ff8b 81be b4dd 8cbd 70d5 903e
000003f0: aeee c53d bd14 20be 5ee4 a8bc 12a7 273c

conv1.bias f4 [6]
0.42844114 0.5329551 0.040673975 0.28148827 -0.1852522 0.73915553
00000000: a35c db3e bf6f 083f c199 263d 3b1f 903e
00000010: c1b2 3dbe 4c39 3d3f

conv2.weight f4 [16, 6, 5, 5]
0.20753855 0.039922167 -0.049251035 0.047235668 0.11981528 0.011743275 -0.014164943 -0.12226719
-0.08223648 -0.05053598 -0.0044604763 -0.093595274 -0.07186129 -0.014680261 0.03532617 0.08521061
0.080499314 0.023471776 -0.051438652 -0.029933667 0.12617525 0.038722403 0.0811703 -0.015786067
0.020977184 -0.03827371 -0.05191103 0.118811384 0.014403209 0.06183652 0.08047533 0.0719022
0.121132754 0.07691514 0.14228505 0.06403828 -0.06558662 0.03534878 0.025242958 0.10267171
-0.10622712 -0.086168915 -0.061839465 0.00055075507 0.0043725213 -0.14604138 -0.2258445 -0.16685474
-0.15537299 -0.14311776 -0.03819557 0.0032901685 -0.09437984 -0.17039277 -0.12043554 -0.062731154
-0.14221957 -0.12821056 -0.24053235 -0.08886441 -0.04896096 -0.07958625 -0.079510055 -0.1648089
-0.152914 -0.044276934 -0.034326352 -0.042311855 0.054882914 -0.05466532 0.030258082 -0.08211846
0.06951189 0.0828158 0.03324869 -0.1155172 -0.011384326 -0.014217957 -0.12299531 -0.03269875
-0.042445116 -0.07629849 -0.036767513 -0.0033821946 0.049288172 0.07536588 0.03570189 0.06780003
0.106220245 0.051416434 0.11740991 0.041817185 0.13342048 0.025412973 0.093705654 0.086655766
0.10614353 0.08856969 0.098553546 0.04496959 -0.007606008 -0.03368588 -0.021954838 -0.084048145
-0.028885512 0.08976404 0.110312425 0.075594254 0.046370845 0.15296794 0.26791835 0.28163835
0.15896168 0.12479181 0.11674688 0.2644868 0.23228541 0.1151286 0.13642135 0.17084384
0.018826988 0.17913379 0.020581888 0.10510288 0.1295245 0.112588875 0.17622384 0.08283967
0.05333686 0.14854725 0.16537772 0.16041045 0.13241766 0.082138665 0.076633886 0.017407542
0.013699136 -0.027801614 0.019685408 0.04650394 -0.106378905 -0.07221234 -0.052480657 -0.029144956
0.079783775 0.06377458 0.067077026 -0.05802957 -0.02530661 -0.031116555 -0.06267596 0.079647474
0.064789824 0.028022109 -0.07678763 0.0010393615 0.013145778 0.018390242 -0.040621147 -0.05318604
-0.047855634 -0.026403118 -0.06714632 0.048137877 -0.09437088 -0.070510104 -0.06561145 -0.018533837
0.03166677 -0.07189647 -0.0066780713 0.04863371 0.05611791 0.06780432 0.069690146 0.023091033
0.048526045 0.11566189 0.08814532 0.21829334 0.039733235 0.087031156 0.11195036 0.1143586
0.059861418 0.11451371 0.049276873 0.10958846 0.15666938 0.008498329 0.20331356 0.08927605
0.15001333 0.039719284 -0.06185625 0.08847438 0.025875954 -0.10301123 -0.0732431 -0.12901069
0.08220972 0.12909217 0.07838543 0.05084581 0.13896179 0.06750604 0.020816918 0.013620695
0.100252576 -0.011175315 -0.053137396 0.062057648 0.082599714 -0.054120943 0.014385224 -0.020139713
-0.012773703 -0.031548925 0.042271987 0.01575669 -0.058475483 0.05037765 -0.040798124 0.056957424
-0.024740733 0.12258227 0.09312909 0.015233965 -0.010100478 0.0833877 0.03511855 0.06529446
-0.008729097 0.06934583 0.1504767 0.0051093823 0.04363502 0.09840242 0.121690206 0.07561695
-0.06220137 0.12020081 0.0084104715 0.10688728 -0.060941774 -0.06810874 0.09941376 0.028279474
-0.027200293 0.042344015 -0.0976562 -0.025637176 -0.04516907 -0.054489486 -0.005453923 -0.015489581
00000000: fc84 543e 6d85 233d 74bb 49bd 307a 413d
00000010: b761 f53d de66 403c 1414 68bc 3867 fabd
00000020: 9a6b a8bd d1fe 4ebd 3029 92bb e1ae bfbd
00000030: 032c 93bd 7a85 70bc 2db2 103d e682 ae3d
00000040: d3dc a43d e247 c03c 56b1 52bd 7337 f5bc
00000050: 1634 013e 629b 1e3d 9d3c a63d c851 81bc
00000060: 58d8 ab3c e5c4 1cbd a9a0 54bd 6253 f33d
00000070: 70fb 6b3c 4a48 7d3d 40d0 a43d 7641 933d
00000080: 7314 f83d af85 9d3d 2cb3 113e 8026 833d
00000090: 4752 86bd e2c9 103d 52ca ce3c 8c45 d23d
000000a0: 9b8d d9bd 5479 b0bd 614b 7dbd 8c60 103a
000000b0: 5e47 8f3b df8b 15be c843 67be f8db 2abe
000000c0: 191a 1fbe 768d 12be f572 1cbd de9f 573b
000000d0: 384a c1bd 717b 2ebe e9a6 f6bd 3179 80bd
000000e0: 02a2 11be a149 03be 1d4e 76be 8bfe b5bd
000000f0: 4a8b 48bd 1efe a2bd 2bd6 a2bd aac3 28be
00000100: 7d95 1cbe bb5b 35bd ca99 0cbd 324f 2dbd
00000110: e8cc 603d bee8 5fbd ccdf f73c b92d a8bd
00000120: 405c 8e3d 559b a93d c72f 083d 4894 ecbd
00000130: 5385 3abc 6ff2 68bc f7e4 fbbd 20ef 05bd
00000140: eeda 2dbd 6242 9cbd 8899 16bd cfa7 5dbb
00000150: 65e2 493d 6d59 9a3d 253c 123d beda 8a3d
00000160: 008a d93d 0a9a 523d 9b74 f03d 7f48 2b3d
00000170: 619f 083e de2e d03c c0e8 bf3d 9478 b13d
00000180: c761 d93d 0764 b53d 71d6 c93d 0832 383d
00000190: d23b f9bb 35fa 09bd a2da b3bc 6f21 acbd
000001a0: 4fa1 ecbc 36d6 b73d 7beb e13d 29d1 9a3d
000001b0: 5bef 3d3d a1a3 1c3e 982c 893e e732 903e
000001c0: dac6 223e d992 ff3d fd18 ef3d d06a 873e
000001d0: 3adc 6d3e 8bc8 eb3d 0ab2 0b3e b0f1 2e3e
000001e0: 0e3b 9a3c d96e 373e 599b a83c 2e40 d73d
000001f0: 12a2 043e ff94 e63d 0674 343e d8a7 a93d
00000200: c077 5a3d c51c 183e c758 293e a342 243e
00000210: 7f98 073e 5138 a83d 3af2 9c3d 439a 8e3c
00000220: 5772 603c 36c0 e3bc 4b43 a13c ea7a 3e3d
00000230: 2fdd d9bd 10e4 93bd f5f5 56bd 67c1 eebc
00000240: ad65 a33d 3f9c 823d ae5f 893d 6ab0 6dbd
00000250: cf4f cfbc 25e8 febc 415c 80bd 371e a33d
00000260: 87b0 843d 9f8e e53c d542 9dbd 2f3b 883a
00000270: 6461 573c 22a7 963c 5c62 26bd 9bd9 59bd
00000280: 4504 44bd 5a4b d8bc 0384 89bd 392c 453d
00000290: 8545 c1bd 9a67 90bd 4c5f 86bd 46d4 97bc
000002a0: 04b5 013d 753e 93bd b9d3 dabb 2434 473d
000002b0: e5db 653d fedc 8a3d b5b9 8e3d 6829 bd3c
000002c0: 3fc3 463d 24e0 ec3d 8985 b43d 4a88 5f3e
000002d0: 51bf 223d 643d b23d 3b46 e53d d734 ea3d
000002e0: 3f31 753d 2a86 ea3d 8cd6 493d ea6f e03d
000002f0: f06d 203e 933c 0b3c 6e31 503e 5dd6 b63d
00000300: 189d 193e b0b0 223d fb5c 7dbd 0e32 b53d
00000310: cff9 d33c 8df7 d2bd 7a00 96bd 611b 04be
00000320: 925d a83d bd30 043e 8a88 a03d b243 503d
00000330: 004c 0e3e 9b40 8a3d 3e88 aa3c 5629 5f3c
00000340: 3951 cd3d ab18 37bc 99a6 59bd 2930 7e3d
00000350: 0a2a a93d ecad 5dbd 01b0 6b3c 0afc a4bc
00000360: cb48 51bc 7239 01bd 6425 2d3d 2d14 813c
00000370: fd83 6fbd cb58 4e3d ef1b 27bd 304c 693d
00000380: 14ad cabc 6a0c fb3d 77ba be3d e197 793c
00000390: 7a7c 25bc 2cc7 aa3d 78d8 0f3d 1ab9 853d
000003a0: 7d04 0fbc 3005 8e3d 9016 1a3e 9b6c a73b
000003b0: a2ba 323d 3587 c93d b738 f93d 0fdd 9a3d
000003c0: ddc6 7ebd d82b f63d 13cc 093c b8e7 da3d
000003d0: 159e 79bd 987c 8bbd 7199 cb3d 5baa e73c
000003e0: 26d3 debc eb70 2d3d f9ff c7bd 0e05 d2bc
000003f0: 3403 39bd 5e30 5fbd d2b6 b2bb 03c8 7dbc

conv2.bias f4 [16]
-0.023688974 0.21713331 0.08577806 -0.05114483 0.072567105 -0.04393337 -0.111993164 -0.61885095
0.1903217 -0.3681091 -0.08707599 0.20677502 -0.014762054 0.24167216 0.061306585 0.008979562
00000000: 610f c2bc 3258 5e3e 68ac af3d 3e7d 51bd
00000010: 109e 943d 7af3 33bd ac5c e5bd 046d 1ebf
00000020: b1e3 423e cc78 bcbe e654 b2bd d5bc 533e
00000030: 8bdc 71bc e878 773e 9d1c 7b3d 031f 133c

fc1.weight f4 [120, 400]
0.010240995 -0.02000333 -0.049795598 -0.057854917 0.026396986 -0.008885155 0.016442409 -0.0035226578
0.020047337 -0.031121597 0.048214093 0.030326046 0.0061803195 0.08051964 0.02460363 0.018456707
0.028869195 -0.017513588 0.008513395 0.008809917 -0.0036067558 -0.03133931 -0.025604742 0.012845994
0.00012772185 -0.02427983 -0.0072589912 0.017066963 -0.006141585 0.024666073 -0.028539488 -0.0076869726
0.015960243 0.019841459 -0.0036861335 0.0029408962 -0.024523465 0.034973726 -0.02514066 -0.034026146
0.015152865 0.07540791 0.0077891727 -0.036440734 -0.004068163 0.0046353564 0.044160966 0.026902867
0.045089662 8.547438e-05 -0.0044210376 0.0052054864 0.0057923393 0.039304715 0.006824211 -0.014575731
-0.0141730625 0.038558476 0.057613187 -0.021721339 -0.011696763 0.033795495 0.061146986 0.042722274
-0.01583397 0.056533877 -0.000977548 -0.011586975 0.0025450487 0.04922431 0.031146191 0.004939907
-0.024988541 0.052445702 0.016400672 -0.04205484 0.032986093 -0.02716242 0.012107046 0.020173915
-0.027803438 -0.0027107066 0.03543064 -0.00454621 -0.024917448 0.030719617 0.031846434 0.002163384
-0.0062257187 -0.023065206 -0.012030609 -0.055081688 0.033036962 -0.011087291 0.041181576 0.043497264
-0.020570999 0.011743691 0.01974448 -0.019821074 -0.004629275 -0.049523965 0.01190171 -0.010281972
0.012802807 0.020979831 0.012273415 0.018489752 0.017208677 0.0005866326 -0.0321104 -0.06423047
0.013485438 -0.050120797 0.02922757 0.00088356587 0.01666285 -0.054347623 -0.01010171 0.022262996
-0.02988403 -0.012173091 -0.041633353 0.025380578 0.06988931 0.037088126 0.008197494 -0.028215751
0.016123943 0.008433046 0.03945051 -0.021744613 -0.0048537236 -0.017575867 0.014367775 -0.025520595
0.016189484 -0.045773182 -0.027901366 -0.042529933 0.040386237 -0.03090894 0.007098834 -0.052964207
0.025540326 -0.033866417 0.032238577 0.0008563966 -0.064129904 0.0100877425 0.020587586 -0.073371634
-0.009943262 0.03292606 0.037743937 0.038417473 -0.05588171 -0.0346748 0.0059112455 0.046057273
-0.023568274 -0.021153482 -0.035140432 -0.031957757 -0.0071286806 -0.030857585 0.010474975 -0.051069684
-0.03871773 -0.07383818 -0.0029841263 0.030984266 0.004694629 -0.00660324 0.013144461 0.0439141
0.00682041 0.016375422 -0.018947378 -0.009814866 0.036126696 0.013783689 0.009539972 -0.010117949
0.06401541 -0.008762906 -0.043238748 0.056747574 0.06750116 0.038656835 0.070713356 -0.021160832
0.04223772 0.050307304 0.017613675 0.10142895 -0.025003359 -0.018758548 0.029907841 0.08125973
-0.034537494 0.026369916 0.040249955 0.004774688 0.017813537 -0.022491481 -0.060244314 0.005434304
-0.05441784 0.014540268 -0.018881377 -0.006057001 -0.05226275 -0.018906811 -0.0072864485 0.031499725
-0.009150578 -0.032203566 0.01498909 -0.05421161 0.01730287 -0.02555357 -0.03191711 0.021857623
-0.010847878 -0.022116244 0.003329105 -0.012336176 0.06151979 -0.0043308223 0.056307834 -0.018023387
0.013195692 0.0227909 0.053661354 0.0053908387 0.07416609 0.04881541 0.0088866465 -0.0061480473
0.018706834 0.004586464 0.037603863 0.028788727 0.05370699 0.03730514 0.056974404 0.025637917
0.0194127 -0.010791064 -0.018570533 -0.05768769 0.031407814 -0.0039427658 -0.045785468 0.028380137
00000000: d9c9 273c 06de a3bc 78f6 4bbd 47f9 6cbd
00000010: 7e3e d83c 0b93 11bc 3bb2 863c 64dc 66bb
00000020: 503a a43c b8f2 febc 247c 453d 546e f83c
00000030: 4784 ca3b 7be7 a43d 8d8d c93c 8532 973c
00000040: 177f ec3c a878 8fbc c47b 0b3c 7857 103c
00000050: 525f 6cbb a65d 00bd 09c1 d1bc 0178 523c
00000060: 13ed 0539 7ee6 c6bc d5dc edbb 04d0 8b3c
00000070: 593f c9bb 8110 ca3c a5cb e9bc 00e3 fbbb
00000080: 0ebf 823c 8e8a a23c 0f93 71bb 0dbc 403b
00000090: 6fe5 c8bc 9c40 0f3d c9f3 cdbc 005f 0bbd
000000a0: b943 783c 766f 9a3d 513c ff3b e142 15bd
000000b0: 3a4e 85bb 30e4 973b 21e2 343d 6763 dc3c
000000c0: f0af 383d b540 b338 5ade 90bb c992 aa3b
000000d0: aacd bd3b fbfd 203d a29d df3b 0ccf 6ebc
000000e0: 2236 68bc 7eef 1d3d cefb 6b3d f3f0 b1bc
000000f0: c8a3 3fbc 256d 0a3d 4375 7a3d 8dfd 2e3d
00000100: 3eb6 81bc 1190 673d 1121 80ba 4cd7 3dbc
00000110: d5ca 263b 6e9f 493d 4c26 ff3c f2de a13b
00000120: c5b4 ccbc 4ed1 563d b45a 863c b241 2cbd
00000130: 6d1c 073d b983 debc a25c 463c c443 a53c
00000140: 09c4 e3bc 1ca6 31bb b81f 113d 60f8 94bb
00000150: ad1f ccbc b5a7 fb3c 6871 023d 90c7 0d3b
00000160: 1d01 ccbb 3ef3 bcbc 081c 45bc 569d 61bd
00000170: c451 073d 78a7 35bc 03ae 283d 302a 323d
00000180: 8384 a8bc 9c68 403c 2dbf a13c ce5f a2bc
00000190: 2cb1 97bb a4d9 4abd 64ff 423c b775 28bc
000001a0: ddc2 513c e5dd ab3c 6f16 493c d277 973c
000001b0: 36f9 8c3c 3fc8 193a 3286 03bd 448b 83bd
000001c0: 07f2 5c3c 774b 4dbd a86e ef3c 1a9f 673a
000001d0: 8780 883c 9d9b 5ebd a581 25bc e360 b63c
000001e0: 5acf f4bc a571 47bc bc87 2abd eeea cf3c
000001f0: 2022 8f3d b8e9 173d c84e 063c b824 e7bc
00000200: 5c16 843c c22a 0a3c dc96 213d c221 b2bc
00000210: fc0b 9fbb 44fb 8fbc d166 6b3c 9110 d1bc
00000220: cf9f 843c a97c 3bbd 6891 e4bc de33 2ebd
00000230: 0a6c 253d bf34 fdbc 569d e83b fff0 58bd
00000240: f239 d13c 83b7 0abd 990c 043d ce7f 603a
00000250: 8a56 83bd 0f47 253c 4ca7 a83c de43 96bd
00000260: 10e9 22bc 7add 063d 6399 1a3d a45b 1d3d
00000270: 38e4 64bd 2a07 0ebd 1fb3 c13b 8da6 3c3d
00000280: 4112 c1bc 114a adbc 6aef 0fbd 23e6 02bd
00000290: b597 e9bb 0cc9 fcbc 3b9f 2b3c 722e 51bd
000002a0: 7c96 1ebd 7938 97bd 5591 43bb b7d2 fd3c
000002b0: 67d5 993b fe5f d8bb de5b 573c 45df 333d
000002c0: bf7d df3b c025 863c 8837 9bbc 88ce 20bc
000002d0: 96f9 133d fbd4 613c 8b4d 1c3c c1c5 25bc
000002e0: 831a 833d 4b92 0fbc 1d1b 31bd 2570 683d
000002f0: 0c3e 8a3d a156 1e3d 2ad2 903d 7b59 adbc
00000300: 7601 2d3d 080f 4e3d 8e4a 903c fbb9 cf3d
00000310: d8d3 ccbc 87ab 99bc 4a01 f53c 806b a63d
00000320: 3077 0dbd b905 d83c 23dd 243d fc74 9c3b
00000330: b2ed 913c 0e40 b8bc bec2 76bd 3f12 b23b
00000340: 3ee5 5ebd 4e3a 6e3c 1ead 9abc cf79 c6bb
00000350: 7711 56bd 75e2 9abc 29c3 eebb db05 013d
00000360: 4eec 15bc e3e7 03bd cd94 753c fe0c 5ebd
00000370: c0be 8d3c b855 d1bc 84bb 02bd c20e b33c
00000380: 4cbb 31bc 202d b5bc 1d2d 5a3b ac1d 4abc
00000390: 2dfc 7b3d 92e9 8dbb 0ba3 663d c8a5 93bc
000003a0: be32 583c fbb3 ba3c 02cc 5b3d a2a5 b03b
000003b0: 64e4 973d abf2 473d 4c99 113c 8f75 c9bb
000003c0: 133f 993c 0c4a 963b 8206 1a3d 56d6 eb3c
000003d0: dcfb 5b3d 46cd 183d fe5d 693d 9c06 d23c
000003e0: 6207 9f3c 01cd 30bc 3b21 98bc ed49 6cbd
000003f0: 7ba5 003d 5132 81bb 8b89 3bbd 767d e83c

fc1.bias f4 [120]
-0.10979798 0.020280674 0.038676344 0.047638077 -0.04697439 0.011520075 0.14851384 0.06102637
-0.055860374 -0.024005353 -0.0073597874 0.015597992 0.11039484 -0.091864005 0.021034123 0.016274132
0.05570853 -0.108457685 0.032719087 -0.09285158 0.024866229 -0.038257994 -0.05818218 0.0019300242
0.08704572 0.062219482 0.066063195 -0.02018544 -0.012003135 -0.029074218 -0.037787113 0.022162028
0.061323464 0.02452607 0.055857092 -0.022793079 0.019362122 -0.0045489506 -0.037892453 -0.04560655
-0.015203881 0.01547497 -0.009459971 -0.026223386 0.086690225 -0.030103844 0.05533643 -0.005083576
0.04187915 0.04875547 -0.121019624 -0.03423542 0.014109442 -0.057358313 0.010652424 0.034049366
-0.065991715 -0.039858546 -0.019291516 0.01961354 0.09291995 -0.10708505 0.05097442 0.053975746
-0.07059623 -0.041505583 -0.03908329 -0.045243014 -0.021391384 0.028041149 0.04865387 -0.005796114
-0.009196971 -0.009418123 0.04292437 -0.026436718 0.05005947 0.0051381686 0.0024021915 0.008542033
0.02656694 0.082275085 0.013746254 0.094380595 0.05000754 0.0058342237 -0.042835392 0.05130378
0.058010023 -0.017868083 0.02074206 0.029385742 0.044465065 -0.04805523 0.014413444 -0.041894514
-0.005402169 -0.122788854 -0.045449123 0.04465241 0.04105566 0.025940718 0.08672916 -0.019851215
-0.03459946 0.0298834 -0.00068555726 -0.0081454385 -0.012267818 0.01487025 -0.03482668 0.03211394
0.07410841 0.017367298 -0.018864468 -0.048120495 -0.09602349 0.046633366 0.09484476 0.05680261
00000000: c3dd e0bd a823 a63c 166b 1e3d 2520 433d
00000010: 3868 40bd b2be 3c3c 0314 183e c9f6 793d
00000020: d9cd 64bd e0a6 c4bc 5f2a f1bb b88e 7f3c
00000030: b116 e23d 3223 bcbd c14f ac3c 5451 853c
00000040: a12e 643d 101f debd 7304 063d f828 bebd
00000050: 43b4 cb3c 6ab4 1cbd 7050 6ebd def8 fc3a
00000060: 0745 b23d dbd9 7e3d 244c 873d f05b a5bc
00000070: cca8 44bc 0e2d eebc a9c6 1abd 248d b53c
00000080: 502e 7b3d e6ea c83c 68ca 643d 8db8 babc
00000090: 509d 9e3c 5d0f 95bb 1e35 1bbd efcd 3abd
000000a0: b319 79bc bb8a 7d3c fffd 1abc 6dd2 d6bc
000000b0: a58a b13d 569c f6bc 74a8 623d 2094 a6bb
000000c0: 7989 2b3d d1b3 473d 23d9 f7bd 713a 0cbd
000000d0: 4a2b 673c 8df0 6abd 8187 2e3c 5977 0b3d
000000e0: aa26 87bd b742 23bd 3e09 9ebc 93ac a03c
000000f0: d14c be3d 684f dbbd 8eca 503d ac15 5d3d
00000100: c294 90bd c201 2abd cd15 20bd bd50 39bd
00000110: fc3c afbc 8db6 e53c 4849 473d 54ed bdbb
00000120: e4ae 16bc 794e 1abc 77d1 2f3d d191 d8bc
00000130: 290b 4d3d 155e a83b 166e 1d3b e2f3 0b3c
00000140: e9a2 d93c d77f a83d f837 613c 9d4a c13d
00000150: b5d4 4c3d 042d bf3b 2a74 2fbd ea23 523d
00000160: eb9b 6d3d 1660 92bc 41eb a93c 5eba f03c
00000170: 0021 363d 90d5 44bd 5e26 6c3c 9599 2bbd
00000180: ae04 b1bb b978 fbbd dc28 3abd 72e5 363d
00000190: fb29 283d a181 d43c 0f9f b13d 049f a2bc
000001a0: 2ab8 0dbd 08ce f43c f8b6 33ba 7274 05bc
000001b0: f5fe 48bc 59a2 733c 6ca6 0ebd e889 033d
000001c0: 26c6 973d dd45 8e3c a889 9abc ff19 45bd
000001d0: f7a7 c4bd a102 3f3d f83d c23d dba9 683d

fc2.weight f4 [84, 120]
-0.043377403 0.08730971 0.010012546 0.038827572 -0.020585425 0.0939798 0.0306087 -0.07862475
0.062086586 -0.05689686 0.025044704 -0.020320565 0.083239354 0.047723845 0.012074099 -0.042283613
0.07741231 0.091428936 0.038292136 0.054803543 -0.0058031003 -0.06785577 0.032071006 -0.06348753
-0.07616247 -0.044206634 -0.068953045 -0.070271164 0.06566884 0.051930144 0.07219622 -0.04814398
0.014419369 0.08778162 -0.05081428 0.05515773 -0.04632042 0.016944334 -0.034778405 -0.06317914
-0.061278604 0.039006945 -0.06998181 0.07359051 -0.029292516 -0.015298626 -0.008096066 0.052469872
0.026647598 -0.087562606 -0.08157361 0.032893497 0.032657538 0.049981374 -0.012450506 0.08565729
-0.042940564 0.0003529179 -0.053592425 -0.059836436 -0.08368539 -0.090229064 0.028027756 0.018014356
0.050757114 0.04183777 -0.06631153 -0.009497592 -0.078351185 0.10021016 -0.039421394 0.094322704
0.085426785 0.0006147646 0.050615933 0.07791785 -0.0046807076 -0.0006580908 -0.0898677 -0.035766367
0.012639531 -0.050223924 -0.0003064507 -0.04337543 -0.050814625 0.116581805 -0.07220678 0.07051514
-0.018099792 0.056496814 0.09101163 0.102888435 -0.07996914 -0.0073617334 0.0626111 0.022819107
-0.06161437 -0.026286839 -0.04044091 0.015900938 -0.08115603 0.026525874 0.045520034 0.014169227
0.043139525 -0.06115764 -0.045854114 -0.077315055 -0.08620077 0.0966846 0.03170143 -0.072505705
0.079658836 -0.081847414 0.10189828 -0.066075675 0.059494462 0.010337691 0.05624003 -0.058774758
0.122704424 0.005534762 -0.070153564 -0.041379366 0.12753841 -0.06925506 -0.14866713 -0.030003235
0.04212849 0.012135151 0.05617817 0.085424945 -0.05868456 0.15206048 0.0657816 -0.04637926
0.16961764 0.012178301 0.028240504 0.1469132 -0.04604101 0.044788625 0.09738985 0.07140201
-0.027907025 0.13135608 0.07113662 -0.012992721 0.05564671 -0.1120103 0.05135818 0.09884655
-0.10423767 0.009283168 -0.06258378 -0.07719574 0.16306302 0.010085183 -0.018508762 -0.047816835
0.09610082 0.09426502 0.042075414 -0.01658022 -0.11915654 -0.032256093 -0.058895804 0.051728744
0.13089278 -0.039902173 0.08739756 -0.033649087 0.044633277 -0.030764991 -0.0048297034 0.06341773
0.20171082 0.14049728 -0.005068567 0.04799289 -0.056665394 0.016187614 -0.10352175 -0.114252545
0.023981765 -0.046308987 -0.053345956 -0.047241133 0.058092523 -0.0910165 -0.043165818 -0.028046777
0.009951786 -0.08996375 0.016753826 0.07925787 -0.06498679 0.019613866 0.030756237 0.120989606
-0.019767057 -0.017463526 -0.10087689 -0.05150199 -0.0062216134 0.119190946 -0.00466455 -0.060222648
0.04065918 0.0725865 0.05871202 -0.16381466 0.042520147 0.11704389 -0.10516309 0.018685972
-0.058086406 0.1983063 -0.042005245 -0.04423633 0.07408598 0.065756984 0.017757272 0.13536292
0.04448969 -0.11411654 -0.0746341 0.013454043 0.08379284 0.038019214 -0.0459841 0.02001712
-0.028781999 -0.0040934794 0.013941266 -0.06831922 -0.053878795 -0.06509162 -0.099919416 -0.037260618
0.053735107 -0.082281254 -0.021544477 0.0063894033 -0.031603266 0.061580293 0.0002623718 -0.011829205
0.08662987 -0.0897002 -0.063304454 -0.07714747 -0.08626769 0.027644314 -0.006027787 -0.04510407
00000000: 81ac 31bd 6fcf b23d a90b 243c a909 1f3d
00000010: c4a2 a8bc 7b78 c03d 19bf fa3c 0306 a1bd
00000020: 814e 7e3d af0c 69bd 8d2a cd3c 5077 a6bc
00000030: 6579 aa3d 147a 433d 71d2 453c 9531 2dbd
00000040: 588a 9e3d 183f bb3d 37d8 1c3d ae79 603d
00000050: ef27 bebb f7f7 8abd e35c 033d c005 82bd
00000060: 12fb 9bbd 0412 35bd 4137 8dbd 54ea 8fbd
00000070: 637d 863d b4b4 543d 9ddb 933d 9f32 45bd
00000080: 383f 6c3c dac6 b33d a222 50bd 12ed 613d
00000090: 7bba 3dbd d8ce 8a3c cd73 0ebd 1164 81bd
000000a0: 46ff 7abd bfc5 1f3d a052 8fbd 9fb6 963d
000000b0: dcf6 efbc 17a7 7abc 5da5 04bc a6ea 563d
000000c0: 104c da3c 0654 b3bd 1110 a7bd 55bb 063d
000000d0: e9c3 053d 45b9 4c3d 35fd 4bbc 176d af3d
000000e0: 72e2 2fbd d707 b939 bb83 5bbd 0d17 75bd
000000f0: 3f63 abbd 04ca b8bd 779a e53c d892 933c
00000100: b1e6 4f3d 155e 2b3d 57ce 87bd ca9b 1bbc
00000110: 9676 a0bd fc3a cd3d 5478 21bd 432c c13d
00000120: 3df4 ae3d 2728 213a a752 4f3d 6593 9f3d
00000130: 9f60 99bb ba83 2cba 8f0c b8bd c17f 12bd
00000140: 0916 4f3c 9ab7 4dbd 1eab a0b9 6faa 31bd
00000150: ff22 50bd 71c2 ee3d 26e1 93bd 3e6a 903d
00000160: 0446 94bc 3469 673d 4e64 ba3d 2cb7 d23d
00000170: dcc6 a3bd b23a f1bb 403a 803d 23ef ba3c
00000180: 5a5f 7cbd 7f57 d7bc 5ea5 25bd af42 823c
00000190: 2235 a6bd ca4c d93c 3773 3a3d 0c26 683c
000001a0: 12b3 303d 6f80 7abd 86d1 3bbd 5b57 9ebd
000001b0: 088a b0bd 9302 c63d 5cd9 013d df7d 94bd
000001c0: 2c24 a33d 9e9f a7bd 0cb0 d03d af52 87bd
000001d0: 77b0 733d 6b5f 293c f25b 663d cdbd 70bd
000001e0: 754c fb3d f35c b53b acac 8fbd 697d 29bd
000001f0: 6e99 023e 99d5 8dbd 323c 18be 58c9 f5bc
00000200: ec8e 2c3d 83d2 463c 151b 663d 46f3 ae3d
00000210: 395f 70bd beb5 1b3e 81b8 863d 2ef8 3dbd
00000220: 3fb0 2d3e 7f87 473c a158 e73c 6a70 163e
00000230: 8095 3cbd 4774 373d 5474 c73d 383b 923d
00000240: 469d e4bc 3582 063e 14b0 913d 6cdf 54bc
00000250: ceed 633d a865 e5bd f45c 523d 0f70 ca3d
00000260: 8f7a d5bd 6e18 183c ed2b 80bd cd18 9ebd
00000270: fef9 263e 533c 253c b09f 97bc 96db 43bd
00000280: 82d0 c43d 050e c13d 4557 2c3d 3ed3 87bc
00000290: 5808 f4bd f71e 04bd ba3c 71bd 85e1 533d
000002a0: c208 063e 7670 23bd 7efd b23d a0d3 09bd
000002b0: 62d1 363d dd06 fcbc 7d42 9ebb 28e1 813d
000002c0: 488d 4e3e 85de 0f3e 3916 a6bb 3194 443d
000002d0: f919 68bd e39b 843c 3603 d4bd 3dfd e9bd
000002e0: 6875 c43c 7eae 3dbd 4a81 5abd eb7f 41bd
000002f0: 6df2 6d3d dc66 babd a4ce 30bd 5bc2 e5bc
00000300: d10c 233c ea3e b8bd 523f 893c f351 a23d
00000310: cb17 85bd 42ad a03c 81f4 fb3c 66c9 f73d
00000320: 86ee a1bc ab0f 8fbc 8b98 cebd c0f3 52bd
00000330: adde cbbb 621a f43d 15d9 98bb 06ac 76bd
00000340: 3e8a 263d 3ba8 943d 047c 703d 08bf 27be
00000350: 9b29 2e3d b5b4 ef3d bf5f d7bd 5313 993c
00000360: 03ec 6dbd cf10 4b3e b10d 2cbd 2731 35bd
00000370: 64ba 973d 99ab 863d b377 913c 949c 0a3e
00000380: d23a 363d efb5 e9bd c3d9 98bd 596e 5c3c
00000390: 959b ab3d 09ba 1b3d d359 3cbd f1fa a33c
000003a0: 3ac8 ebbc 9822 86bb e869 643c f2ea 8bbd
000003b0: 03b0 5cbd c14e 85bd 8da2 ccbd 979e 18bd
000003c0: 5819 5c3d 1383 a8bd 0b7e b0bc 335e d13b
000003d0: 6d72 01bd 9e3b 7c3d f28e 8939 48cf 41bc
000003e0: 006b b13d bdb4 b7bd c4a5 81bd 7eff 9dbd
000003f0: 1dad b0bd 5476 e23c be84 c5bb 0cbf 38bd

fc2.bias f4 [84]
0.03754986 0.04871688 -0.01564123 0.05908729 -0.07403908 0.053398468 0.046749935 -0.11402681
-0.119542874 0.055567935 0.017254349 0.10496189 0.09526452 0.0941045 -0.004089804 0.0069017312
0.16115722 0.22010282 0.18814252 0.049980838 0.027929876 0.10402042 -0.02693912 -0.0011758064
0.06364398 -0.040521357 -0.10256906 0.07859144 -0.07952341 0.04146251 -0.07250119 0.011381741
0.19763656 -0.045016296 -0.074068055 0.023719639 0.004119155 -0.037081983 -0.036091674 -0.021623738
0.0199783 -0.030908054 0.021235825 0.079474196 -0.04478993 0.17868562 -0.0063975723 -0.09416168
0.10322743 0.102218725 -0.10713156 -0.016634285 0.0919157 -0.004613252 0.04626056 -0.06293002
0.11547152 -0.017510999 0.15531407 -0.022026079 -0.0485455 0.042162087 -0.07711116 0.0068248776
-0.09771109 0.06006868 -0.043084845 -0.034214187 0.24793567 0.008502205 0.0797545 -0.090982825
0.0560852 -0.0033027944 0.1644803 0.17688008 0.16172418 0.064303845 0.07693358 0.044977326
-0.029973075 -0.013073992 -0.016365485 -0.055402998
00000000: e2cd 193d 5a8b 473d 0922 80bc 8405 723d
00000010: cda1 97bd 5ab8 5a3d dc7c 3f3d e386 e9bd
00000020: e5d2 f4bd 349b 633d fe58 8d3c 42f6 d63d
00000030: 0b1a c33d dcb9 c03d c303 86bb eb27 e23b
00000040: 6606 253e a262 613e 6fa8 403e b5b8 4c3d
00000050: 32cd e43c a808 d53d 6eaf dcbc 841d 9aba
00000060: c657 823d b9f9 25bd ba0f d2bd 8df4 a03d
00000070: 2bdd a2bd 98d4 293d 817b 94bd 7b7a 3a3c
00000080: 3d61 4a3e 0263 38bd feb0 97bd b04f c23c
00000090: faf9 863b 47e3 17bd ddd4 13bd 4424 b1bc
000000a0: 88a9 a33c e332 fdbc c1f6 ad3c 5ec3 a23d
000000b0: a575 37bd 5df9 363e baa2 d1bb d7d7 c0bd
000000c0: e768 d33d 0d58 d13d cb67 dbbd a044 88bc
000000d0: 4c3e bc3d c32a 97bb b77b 3d3d 74e1 80bd
000000e0: 557c ec3d 3a73 8fbc a70a 1f3e 0970 b4bc
000000f0: a5d7 46bd 27b2 2c3d 75ec 9dbd 39a3 df3b
00000100: c11c c8bd 940a 763d bc79 30bd 2d24 0cbd
00000110: d9e2 7d3e d54c 0b3c 5456 a33d 3455 babd
00000120: 98b9 653d b273 58bb 866d 283e 0d20 353e
00000130: 069b 253e bcb1 833d 5a8f 9d3d 253a 383d
00000140: 188a f5bc 4c34 56bc e910 86bc 41ee 62bd

fc3.weight f4 [10, 84]
-0.019351479 0.08374625 0.15275621 0.10790478 0.033438068 -0.13535169 0.11832522 -0.043985356
0.11880077 0.021011194 -0.04564083 0.23651315 0.17201972 -0.13568881 0.13766357 0.23176469
0.19717225 0.13640653 -0.15281954 0.11477313 0.35258734 -0.09722484 0.104929395 -0.047814608
-0.07488413 -0.23279801 -0.1660688 -0.2254086 0.06054629 -0.0023767825 0.08787927 0.12398794
0.28089204 0.096093595 -0.037657112 0.11101458 0.032831695 -0.061906923 -0.14699814 -0.0076624947
0.108122624 0.07039367 0.08730655 -0.1069631 0.03608042 -0.09816042 0.12653176 -0.009619095
-0.0034608645 0.14132936 -0.050912537 0.2506379 -0.044024613 -0.23038188 -0.1950677 -0.032881387
0.038904745 0.010165104 -0.11504033 0.048847012 0.15861222 -0.09209972 0.1643522 0.035119824
-0.1421354 -0.0101147285 -0.14456064 -0.013168137 0.025626345 -0.11142134 -0.1247629 0.3565243
0.17180051 -0.097201 0.034685835 -0.17708951 -0.099720165 0.0669236 0.03650297 0.13699421
-0.006581379 -0.06729317 0.19056587 -0.0436662 -0.097353056 0.36666408 0.20441693 -0.21208954
-0.0023632594 -0.10143366 -0.1572332 0.09662275 0.04520044 0.11151855 -0.1310534 -0.22266874
-0.3397423 -0.20084342 -0.09739635 -0.2687642 -0.02255103 -0.2463556 -0.059263982 -0.089465775
0.0076396004 -0.27796426 -0.067398846 -0.08281565 -0.023839448 0.06683203 0.007891728 0.027227284
-0.09003826 0.06805476 0.12715025 -0.10323403 -0.21658394 -0.039575364 0.10209273 0.07097578
-0.072130255 0.005603839 0.3407881 0.10668388 -0.02537716 0.07576072 0.100324996 -0.15628046
0.13743149 -0.08708076 0.004626918 -0.07153651 -0.20049044 0.12082705 -0.20163573 0.08457776
-0.23989747 0.008848432 -0.058067568 0.03328476 -0.09410423 -0.15662941 -0.15913455 0.067372985
-0.035985034 -0.080804974 0.032480743 0.21422529 0.09272991 -0.06607996 -0.021639569 -0.21401633
-0.2995315 0.04758112 0.14232181 -0.12370281 0.15083252 -0.2223242 -0.16067143 0.038950626
-0.22438605 -0.044745054 -0.0038281374 0.09463169 -0.06034585 0.4157307 0.022177678 -0.059895433
0.08826539 -0.18315484 -0.08854722 -0.015827948 0.17225167 -0.22559051 0.018086681 -0.227404
-0.1211121 -0.12886691 0.17138529 0.08596149 -0.043529313 -0.17276204 -0.08470817 -0.06117146
0.096257254 0.3128678 0.2091569 0.15321806 0.2984732 -0.25578836 0.08826934 -0.050046135
0.00286724 -0.031349313 0.08976255 -0.0135741625 -0.019010473 0.12125083 -0.04921989 0.24395718
0.20143628 0.14354736 0.03616635 0.03506314 -0.08354958 -0.11037866 -0.018619495 -0.014316666
-0.14469238 0.20110422 -0.07601334 -0.09965209 -0.09852419 0.21469302 0.18342842 -0.03743404
0.046634275 -0.06804054 -0.12646559 0.10853985 0.10672116 -0.13715939 0.03809027 -0.03232406
-0.26771408 0.19864507 0.046897486 0.018537944 0.041336965 0.09669066 0.068784855 0.09581811
0.07281125 0.08614614 0.061244093 0.0674198 0.27079153 0.024758833 -0.17531163 -0.07604333
-0.016087484 0.21945302 0.22014861 0.154451 0.20766889 -0.3213219 0.03074319 0.11313712
-0.07565097 0.10903142 -0.016397728 0.09052834 0.008637497 -0.095262446 -0.011803596 0.036689755
00000000: fe86 9ebc 2783 ab3d 206c 1c3e 2efd dc3d
00000010: 5bf6 083d a299 0abe 7e54 f23d fd29 34bd
00000020: d14d f33d ab1f ac3c e1f1 3abd 8130 723e
00000030: f025 303e 02f2 0abe aef7 0c3e b953 6d3e
00000040: 86e7 493e 27ae 0b3e ba7c 1cbe 2d0e eb3d
00000050: 5486 b43e d11d c7bd 39e5 d63d 40d9 43bd
00000060: da5c 99bd 9a62 6ebe f10d 2abe 83d1 66be
00000070: 63ff 773d cbc3 1bbb 0cfa b33d 64ed fd3d
00000080: 15d1 8f3e b8cc c43d 583e 1abd 9d5b e33d
00000090: 877a 063d 1d92 7dbd ae86 16be aa15 fbbb
000000a0: 656f dd3d 8e2a 903d c7cd b23d 780f dbbd
000000b0: 10c9 133d 5508 c9bd 8b91 013e 6999 1dbc
000000c0: accf 62bb a5b8 103e aa89 50bd 9c53 803e
000000d0: 2753 34bd 3ae9 6bbe d4bf 47be a2ae 06bd
000000e0: 955a 1f3d 898b 263c 449a ebbd ce13 483d
000000f0: 3e6b 223e c79e bcbd f14b 283e ced9 0f3d
00000100: f18b 11be 3fb8 25bc b407 14be 2bbf 57bc
00000110: 57ee d13c df30 e4bd b183 ffbd 5a8a b63e
00000120: 79ec 2f3e 5111 c7bd bc12 0e3d f456 35be
00000130: 163a ccbd 3e0f 893d 2384 153d 3648 0c3e
00000140: 9ca8 d7bb 00d1 89bd b323 433e 54db 32bd
00000150: 0a61 c7bd 65bb bb3e ac52 513e 002e 59be
00000160: eae0 1abb 73bc cfbd bd01 21be 26e2 c53d
00000170: 1924 393d d663 e43d dd32 06be 4603 64be
00000180: b4f2 adbe e6a9 4dbe bd77 c7bd 769b 89be
00000190: f0bc b8bc a444 7cbe cabe 72bd d539 b7bd
000001a0: 9d55 fa3b 5551 8ebe 6808 8abd 409b a9bd
000001b0: f24a c3bc 3bdf 883d 4e4c 013c c10b df3c
000001c0: fb65 b8bd 4b60 8b3d ad33 023e 5d6c d3bd
000001d0: 2ec8 5dbe c719 22bd fe15 d13d c05b 913d
000001e0: 07b9 93bd 69a0 b73b c77b ae3e 147d da3d
000001f0: c3e3 cfbc 7028 9b3d 3177 cd3d fc07 20be
00000200: d7ba 0c3e 6657 b2bd 679d 973b bc81 92bd
00000210: 5e4d 4dbe 2c74 f73d 9979 4ebe 1b37 ad3d
00000220: afa7 75be 04f9 103c 42d8 6dbd 9a55 083d
00000230: b8b9 c0bd 7663 20be 2bf4 22be d9fa 893d
00000240: 0b65 13bd 147d a5bd 870a 053d e05d 5b3e
00000250: 2ee9 bd3d ee54 87bd 7745 b1bc 1927 5bbe
00000260: 315c 99be 6ce4 423d cfbc 113e e657 fdbd
00000270: d773 1a3e f5a8 63be 0d87 24be b18a 1f3d
00000280: 75c5 65be 9746 37bd 7de1 7abb 42ce c13d
00000290: 362d 77bd a8da d43e f6ad b53c ea54 75bd
000002a0: 7cc4 b43d f18c 3bbe 3f58 b5bd 9da9 81bc
000002b0: be62 303e 3301 67be 852a 943c 98dc 68be
000002c0: 9f09 f8bd b0f5 03be a07f 2f3e 940c b03d
000002d0: cb4b 32bd 88e8 30be 7a7b adbd ed8e 7abd
000002e0: 8622 c53d 3530 a03e 3a2d 563e 32e5 1c3e
000002f0: 7bd1 983e b1f6 82be 8ec6 b43d 2dfd 4cbd
00000300: 4ee8 3b3b 2368 00bd 6ed5 b73d 2a66 5ebc
00000310: dabb 9bbc 5b52 f83d cc9a 49bd e9cf 793e
00000320: 5045 4e3e 14fe 123e 2b23 143d 5e9e 0f3d
00000330: 0b1c abbd 350e e2bd e987 98bc 7390 6abc
00000340: 3d2a 14be 44ee 4d3e e2ac 9bbd 6516 ccbd
00000350: 0dc7 c9bd 7dd8 5b3e a9d4 3b3e 7054 19bd
00000360: 9503 3f3d d758 8bbd 3280 01be 244a de3d
00000370: a090 da3d 8373 0cbe 8b04 1c3d 3c66 04bd
00000380: d211 89be 9d69 4b3e 9417 403d e3dc 973c
00000390: f350 293d c105 c63d 13df 8c3d 493c c43d
000003a0: 111e 953d 636d b03d 16db 7a3d 6413 8a3d
000003b0: 30a5 8a3e 09d3 ca3c e484 33be 9bbc 9bbd
000003c0: e6c9 83bc 4bb8 603e a36e 613e 6728 1e3e
000003d0: 27a7 543e 4e84 a4be 24d9 fb3c 6fb4 e73d
000003e0: e5ee 9abd dd4b df3d 8754 86bc ec66 b93d
000003f0: 4a84 0d3c f518 c3bd df63 41bc ff47 163d

fc3.bias f4 [10]
0.12872723 -0.30272475 0.13587183 -0.0025587385 0.36306453 -0.015192242 0.015026625 -0.21245362
0.26113063 -0.26816508
00000000: 12d1 033e bdfe 9abe fc21 0b3e 82b0 27bb
00000010: 98e3 b93e e2e8 78bc 3c32 763c 718d 59be
00000020: eab2 853e ef4c 89be
