imlonetwork.pth (torch, 252037 bytes, 10 tensors)

conv1.weight f4 [6, 3, 5, 5]
0	0x3cd79601	0.026316645
1	0xbecb7bc9	-0.39742878
2	0xbf18fabd	-0.59757596
3	0xbe84a8f5	-0.25910154
4	0xbd91aa7f	-0.07112598
5	0x3d85c5e3	0.065318845
6	0xbdbee57f	-0.09321117
7	0xbf14d03f	-0.5813026
8	0xbf048b27	-0.5177483
9	0xbe734502	-0.23756793
10	0xbd959a4c	-0.073048204
11	0x3e985702	0.29753882
12	0x3e97ca0f	0.29646346
13	0xbd32107a	-0.043472745
14	0xbe956a23	-0.29182538
15	0x3d9627e0	0.07331824
16	0x3eb14d5e	0.3462934
17	0x3ef55f78	0.479244
18	0x3eeb37c8	0.45940995
19	0x3db2e3a6	0.08734827
20	0xbce6b86e	-0.028164115
21	0x3e05f107	0.13080226
22	0x3edbfb30	0.42965078
23	0x3eb6ec60	0.35727215
24	0x3ed5584a	0.41668922
25	0xbcf0b440	-0.029382825
26	0xbe99ebb7	-0.3006265
27	0xbec4f2b8	-0.3846643
28	0xbe1e3248	-0.15448868
29	0x3ea0963a	0.31364614
30	0xbc899e1e	-0.016799029
31	0xbe766c78	-0.24064815
32	0xbee51488	-0.44742227
33	0xbedbb7f2	-0.42913777
34	0xbd42964b	-0.04750661
35	0xbd01c1c6	-0.031678937
36	0x3e33369a	0.17501298
37	0x3e036bb2	0.12834051
38	0xbe884266	-0.26613158
39	0xbeb8cc2c	-0.3609327
40	0xbe413349	-0.1886722
41	0x3e52c6f7	0.20583712
42	0x3ee90ed2	0.4551912
43	0x3e653c46	0.22386274
44	0xbdb22590	-0.08698571
45	0xbe91916c	-0.2843126
46	0xbde0bad0	-0.10973132
47	0x3e3d5853	0.18490724
48	0x3eb7313d	0.35779753
49	0x3e1ece67	0.15508424
50	0x3ed4134b	0.4142097
51	0xbe4976c6	-0.19674215
52	0xbecda81d	-0.40167323
53	0xbe708046	-0.23486432
54	0x3e07d790	0.13265824
55	0x3e70676a	0.2347695
56	0x3d7b722d	0.061388183
57	0xbed8a708	-0.42314935
58	0xbef82cf1	-0.48471788
59	0xbda853f9	-0.082191415
60	0x3e3264be	0.17421243
61	0x3eacaac0	0.33724022
62	0x3e3ff4e0	0.18745756
63	0xbd2a7cf8	-0.041623086
64	0xbedef2e1	-0.43544677
65	0x3d105019	0.035232637
66	0x3ecb6f19	0.39733198
67	0x3f04fccc	0.5194824
68	0x3ef86271	0.48512605
69	0x3d0c4170	0.034242094
70	0xbe213d92	-0.15746143
71	0x3e530cb0	0.20610309
72	0x3ebe3d6a	0.3715623
73	0x3ec5553b	0.38541588
74	0x3cad03dc	0.021120004
75	0xbde4baaa	-0.11168416
76	0x3c08af58	0.008342586
77	0xbd896c4c	-0.06710109
78	0x3d162eaf	0.036665615
79	0xbd1e8e14	-0.038709715
80	0x3dc2777f	0.09495448
81	0xbe5e592d	-0.21713705
82	0xbebf5de4	-0.3737632
83	0x3e1916a7	0.14950047
84	0x3d01b579	0.031667206
85	0x3f235cb0	0.63813305
86	0xbe179cac	-0.1480586
87	0xbf8e27e9	-1.110593
88	0x3db2fb04	0.08739284
89	0x3e053ea0	0.13012171
90	0x3f10e8e2	0.5660535
91	0x3eb4b2ca	0.35292655
92	0xbf8f1d21	-1.1180764
93	0x3dc84703	0.097791694
94	0x3e6a64c0	0.22889996
95	0x3e9e82ce	0.3095917
96	0x3ef48e6a	0.47764903
97	0xbf3512f8	-0.7073207
98	0xbd460e34	-0.04835339
99	0xbc57a6b0	-0.0131623
100	0xbda9caa1	-0.082906015
101	0xbdb7fdd1	-0.089839585
102	0x3cb4a186	0.022049677
103	0x3e46b8d0	0.19406438
104	0x3dd70b77	0.105002336
105	0x3e951f47	0.29125425
106	0xbe6c0d0e	-0.23051855
107	0xbee01cd1	-0.43771985
108	0x3e2c573e	0.16830155
109	0x3e431a29	0.19052948
110	0x3f00f3f0	0.5037222
111	0xbe04dc24	-0.12974602
112	0xbf7aac79	-0.9791942
113	0x3e42e05d	0.190309
114	0x3e4ed7d8	0.20199525
115	0x3f0944b9	0.5362049
116	0x3ed305d8	0.41215396
117	0xbf7da0f5	-0.99073726
118	0x3e2dc950	0.16971326
119	0x3ea1731b	0.3153313
120	0x3e967257	0.2938411
121	0x3ebdec88	0.37094522
122	0xbf4c92d8	-0.79911566
123	0xbcf01ca7	-0.029310538
124	0xbd3c9f61	-0.046050433
125	0xbdf171a8	-0.11789256
126	0xbdbad726	-0.091230676
127	0xbe1758eb	-0.14780013
128	0xbdeae6b5	-0.11469785
129	0xbdb10a7a	-0.08644576
130	0x3e99e779	0.30059412
131	0xbe73b3e6	-0.23799095
132	0xbea7027e	-0.3261909
133	0x3e46bd11	0.1940806
134	0x3d7c5490	0.061604083
135	0x3f1ceb81	0.6129685
136	0xbdb96d0a	-0.09054001
137	0xbf4b5947	-0.794331
138	0x3e3568ec	0.17715806
139	0x3e4c638d	0.1995985
140	0x3f03b3f0	0.5144644
141	0x3ea80806	0.3281862
142	0xbf8c9044	-1.0981526
143	0x3e0e5a31	0.13901593
144	0x3e5925e4	0.2120586
145	0x3eae858a	0.34086257
146	0x3f162c29	0.58661133
147	0xbf14f7c6	-0.5819057
148	0xbdde3b8e	-0.10851203
149	0xbbe758c1	-0.007060141
150	0xbe46b0c7	-0.19403373
151	0x3e25312a	0.16132036
152	0x3ee605cb	0.44926295
153	0xbee8ae68	-0.4544556
154	0xbe85af41	-0.2611027
155	0xbd048000	-0.032348633
156	0xbeacd024	-0.3375255
157	0xbf0cbbf6	-0.54974306
158	0xbe6753c2	-0.22590545
159	0x3e89d06d	0.2691683
160	0xbc66e5f0	-0.014092907
161	0xbf1b4904	-0.6065829
162	0xbf9a8dfc	-1.207458
163	0x3eb563fa	0.3542784
164	0x3f2c417b	0.67287415
165	0xbe904a36	-0.28181618
166	0x3e187331	0.14887692
167	0x3f18a675	0.59628993
168	0x3f018cfb	0.50605744
169	0xbed0de2a	-0.40794498
170	0x3e024da8	0.12724936
171	0x3ee90fb3	0.4551979
172	0x3ef48333	0.47756347
173	0xbe9b27d3	-0.3030382
174	0xbe4ead1e	-0.20183226
175	0x3defabed	0.11702714
176	0x3e97df68	0.29662633
177	0x3f2453ed	0.6419056
178	0xbec58f6e	-0.3858599
179	0xbe86bbe2	-0.26315218
180	0x3e9d58a7	0.307317
181	0xbda93153	-0.08261361
182	0xbe9da341	-0.30788615
183	0xbbcd516d	-0.00626581
184	0x3e928148	0.2861426
185	0x3e9a2500	0.30106354
186	0xbed12c11	-0.40853932
187	0xbf6a8e76	-0.9162363
188	0x3ead1dbd	0.3381175
189	0x3f21fdfe	0.63278186
190	0xbe26b5f5	-0.16280349
191	0x3e6d1dad	0.23155852
192	0x3f07f957	0.5311484
193	0x3ee3693a	0.4441622
194	0xbf045cdc	-0.5170419
195	0x3d6c7320	0.05772698
196	0x3e7747c6	0.24148473
197	0x3e51dd22	0.20494512
198	0xbf044473	-0.51666945
199	0xbef10ec4	-0.47081578
200	0xbea25886	-0.31708163
201	0x3d1f29db	0.038858276
202	0x3eba8198	0.36426997
203	0xbeae7e38	-0.34080672
204	0x3decb7d8	0.11558503
205	0xbd4689d7	-0.048471298
206	0xbe4ef6ad	-0.20211287
207	0xbedea475	-0.43484846
208	0xbd8a316b	-0.06747707
209	0x3e8c081d	0.2734994
210	0x3cf17e0d	0.029479051
211	0xbf16889a	-0.5880219
212	0xbf615369	-0.880179
213	0x3e64e854	0.22354251
214	0x3edbd861	0.42938522
215	0xbeb0c173	-0.3452259
216	0x3daa0b42	0.083029285
217	0x3f0aa63d	0.5415991
218	0x3eaa62a9	0.33278397
219	0xbe83e4d9	-0.25760534
220	0xbca3310c	-0.019920848
221	0x3e88ed3c	0.26743495
222	0x3ed7bf67	0.42138216
223	0xbe2d9aa8	-0.16953528
224	0xbceda0f2	-0.029007409
225	0x3e5c01ef	0.21485113
226	0x3e33dd6f	0.17564939
227	0x3e5f064a	0.21779743
228	0x3e4503d4	0.19239742
229	0x3e6895ad	0.22713347
230	0x3e11cb72	0.14237764
231	0x3e379bd7	0.17930542
232	0x3ec0bfc0	0.37646294
233	0x3eca10b7	0.39465877
234	0x3e5b059f	0.21388863
235	0x3de4acdf	0.11165785
236	0x3dff1f07	0.1245709
237	0x3ea55079	0.32287958
238	0x3e9de882	0.30841452
239	0x3d5ae9aa	0.053445496
240	0xbe4db27c	-0.20087618
241	0xbdb9bb93	-0.0906898
242	0x3cc64908	0.024204746
243	0x3c709ab6	0.014685323
244	0xbcacc833	-0.021091556
245	0xbe4ed34a	-0.20197788
246	0xbe99f86d	-0.30072346
247	0xbe66b507	-0.22529994
248	0xbe2acef0	-0.16680503
249	0xbe475e55	-0.19469579
250	0xbd5b989a	-0.05361233
251	0xbe98d1bc	-0.29847515
252	0xbea2500a	-0.3170169
253	0xbe88c33e	-0.26711458
254	0xbe12632f	-0.14295648
255	0xbe6939e4	-0.2277599

conv1.bias f4 [6]
0	0x3e245792	0.1604903
1	0x3f4817b7	0.78161186
2	0x3e9f60af	0.3112845
3	0x3ecd4e7e	0.40098947
4	0x3fa18f43	1.2621845
5	0xbe53ca64	-0.20682675

conv2.weight f4 [16, 6, 5, 5]
0	0x3e3a1d87	0.18175326
1	0xbe460fca	-0.1934196
2	0xbe5410f0	-0.20709586
3	0x3e5f26eb	0.2179219
4	0x3de2eb6c	0.110800594
5	0x3e2c6d42	0.16838554
6	0x3e7feb15	0.2499202
7	0xbdd283bc	-0.102790326
8	0xbe66ea66	-0.22550353
9	0x3e143eab	0.14477031
10	0xbe647bc2	-0.22312835
11	0x3d4168d6	0.04721912
12	0x3e2b1a76	0.16709313
13	0xbd230a45	-0.039804716
14	0x3e383099	0.17987289
15	0x3d790da0	0.06080401
16	0xbdfa5c64	-0.12224653
17	0x3dd3d346	0.103430316
18	0xbbfdcec8	-0.0077455975
19	0x3cf986c1	0.030459763
20	0xbda546b4	-0.08070126
21	0xbc0ad387	-0.008473284
22	0xbdb397d7	-0.087691955
23	0xbe34458b	-0.17604654
24	0x3dfad071	0.12246788
25	0x3e354127	0.17700635
26	0x3e5d2369	0.21595539
27	0xbdc2ac04	-0.095054656
28	0xbe0acad4	-0.13553935
29	0x3e8b1de4	0.27171242
30	0xbdad463c	-0.08460662
31	0xbc6ca5ff	-0.014443873
32	0x3e7d1992	0.24716786
33	0xbd229cbd	-0.03970026
34	0xbe74f21f	-0.23920487
35	0x3bd8dcc1	0.006618113
36	0xbe24e5df	-0.16103314
37	0x3df6b603	0.12046435
38	0x3e2e8e53	0.1704648
39	0xbe25cadd	-0.16190667
40	0xbcf4b865	-0.029873082
41	0x3cbf84e7	0.023378802
42	0xbe8d36f8	-0.27581
43	0x3ce5f4a9	0.028070765
44	0x3d016cc2	0.03159786
45	0xbddd58f1	-0.1080798
46	0xbe2c46ad	-0.16823836
47	0x3dfab8dd	0.12242291
48	0xbdffc95e	-0.124895796
49	0x3df8df3c	0.121519536
50	0x3d3f4963	0.046700846
51	0x3d90d834	0.070724875
52	0xbe4527df	-0.19253491
53	0xbe7d4bc3	-0.24735932
54	0x3b6bdd1b	0.0035989943
55	0xbe17c882	-0.14822581
56	0xbdababa9	-0.08382351
57	0x3de4db99	0.111746974
58	0x3c9066c7	0.017627133
59	0x3d3b59ef	0.045740064
60	0x3b8747e9	0.0041284454
61	0xbe66933d	-0.22517104
62	0xbdc3abed	-0.095542766
63	0x3e1ec582	0.15505031
64	0x3c783feb	0.015151958
65	0xbc9bec3b	-0.019033542
66	0xbd9a896f	-0.07545745
67	0x3d49c50e	0.04926019
68	0x3d624fb6	0.0552518
69	0x3da076f9	0.07835192
70	0xbde717da	-0.11283846
71	0x3b85a6fc	0.004078744
72	0x3d642a36	0.055704318
73	0xbc7764d6	-0.015099725
74	0x3dcee757	0.10102718
75	0x3e0dfa80	0.1386509
76	0x3e1459a3	0.14487319
77	0xbd3a664f	-0.045507725
78	0xbdcb88f1	-0.09938229
79	0x3df3ea49	0.11909921
80	0x3db49427	0.0881732
81	0x3e440316	0.19141802
82	0x3d9c8f5c	0.07644531
83	0xbd6e3697	-0.05815753
84	0xbd13d4f2	-0.036091752
85	0x3dc933ec	0.098243564
86	0x3e2bf70c	0.1679346
87	0x3e533e66	0.20629272
88	0xbd839de2	-0.06426598
89	0xbe075b3d	-0.13218398
90	0xbd841d88	-0.06450945
91	0x3e327970	0.17429137
92	0x3db3ad11	0.08773244
93	0x3da7f967	0.082018666
94	0xbd32ed39	-0.043683264
95	0x3d981196	0.07425229
96	0x3da1ca6d	0.07899938
97	0x3dbacf19	0.09121532
98	0x3e94656e	0.28983635
99	0x3e9cfbfd	0.30661002
100	0x3de674e2	0.112527624
101	0x3e2fb747	0.17159759
102	0x3e26c5e6	0.1628643
103	0xbc914b9b	-0.017736247
104	0x3e0e679f	0.13906716
105	0xbdb12b36	-0.0865082
106	0xbc2136aa	-0.009839693
107	0xbce012e3	-0.027352756
108	0xbd830422	-0.06397273
109	0x3d26cd1a	0.040722944
110	0x3e4f0ce2	0.20219758
111	0xbd6b1f9d	-0.057403196
112	0xbd362f07	-0.044478443
113	0x3d04cb8d	0.032420684
114	0xbdae1010	-0.084991574
115	0x3e46bc8d	0.19407864
116	0xbc0e1083	-0.008670929
117	0xbd6fcc7c	-0.05854462
118	0xbddf2e1f	-0.10897469
119	0x3cf66f97	0.030082507
120	0x3eca9c5e	0.39572424
121	0x3e51e7a5	0.20498522
122	0x3d6e4c5a	0.058178283
123	0xbdf903b1	-0.12158907
124	0xbda97981	-0.08275128
125	0xbdc11b69	-0.09429056
126	0xbda7d759	-0.08195371
127	0xbd11ba67	-0.035578158
128	0x3e0a62d8	0.13514268
129	0xbc73e139	-0.01488524
130	0x3cc36c9f	0.023855506
131	0xbe8c954c	-0.27457654
132	0xbebab42a	-0.3646558
133	0xbc8d8b1c	-0.017278247
134	0x3e7a63bf	0.24452113
135	0xbe44c36e	-0.19215176
136	0xbe2df6a3	-0.16988616
137	0xbec4f63b	-0.3846911
138	0xbe1f9065	-0.15582426
139	0x3df1d8cd	0.118089296
140	0xbee249bb	-0.44196877
141	0xbea7bc42	-0.32760817
142	0xbe96cf86	-0.29455203
143	0xbe1eeca2	-0.15519956
144	0x3c5d913b	0.013523395
145	0xbdcd29ad	-0.10017715
146	0xbe47cace	-0.19510958
147	0xbe5b5432	-0.21418837
148	0xbbd0e77c	-0.0063752513
149	0xbe717f74	-0.23583776
150	0x3d0bc50f	0.034123477
151	0xbe17c076	-0.14819512
152	0xbe48441e	-0.19557235
153	0x3dad7439	0.08469433
154	0x3ea0cce9	0.31406334
155	0xbdc57482	-0.09641363
156	0xbda95d62	-0.082697645
157	0xbe042fb0	-0.12908816
158	0x3e341c5f	0.17588948
159	0xbda8e54e	-0.082468614
160	0xbd046ae3	-0.032328498
161	0xbc9b0b6e	-0.018926349
162	0xbe06c6c4	-0.1316176
163	0x3d5ed6cb	0.05440406
164	0xbe6c7669	-0.23092045
165	0x3d04c2ed	0.03241246
166	0x3e021367	0.12702714
167	0x3be89378	0.007097658
168	0xbd93969b	-0.0720646
169	0xbdee1b14	-0.116262585
170	0x3d1ec1e0	0.038759112
171	0xbd6f1e81	-0.0583787
172	0xbd600ebb	-0.054701548
173	0xbd8dfd13	-0.06933036
174	0xbd346f0a	-0.044051208
175	0x3e2877ed	0.16451998
176	0x3e792075	0.24328788
177	0x3d862071	0.065491565
178	0x3e9b3ef1	0.30321458
179	0x3e7c397f	0.24631308
180	0x3dc1c78c	0.09461889
181	0x3d36a4c8	0.04459074
182	0xbdb29b5f	-0.08721041
183	0x3dee8692	0.11646761
184	0xbe06941c	-0.13142437
185	0x3e4fd41a	0.20295754
186	0xbe257cf4	-0.16160947
187	0xbd96d4d2	-0.07364811
188	0xbc4ec4fe	-0.012620209
189	0xbdaf7d70	-0.08568847
190	0xbe078faa	-0.13238397
191	0xbe554234	-0.20826036
192	0xbe54a876	-0.20767388
193	0xbe11ad82	-0.14226344
194	0xbd603cc5	-0.054745454
195	0xbdb99712	-0.090620175
196	0xbd8283f1	-0.06372822
197	0xbd894259	-0.06702108
198	0xbdf6bc8d	-0.12047682
199	0xbda910d0	-0.0825516
200	0x3e63b7c2	0.22238067
201	0x3ec25052	0.37951905
202	0x3e948be0	0.29012966
203	0x3ebccbc1	0.36874202
204	0x3e217230	0.15766215
205	0x3e72b2b0	0.23700976
206	0x3dbeb911	0.09312642
207	0x3edd8dc1	0.43272212
208	0x3ed35860	0.41278362
209	0x3e36b3a9	0.17841972
210	0x3da03e8e	0.07824431
211	0x3e9f8b1f	0.31160828
212	0x3edf8178	0.43653464
213	0x3e6d0b30	0.23148799
214	0x3dbf170d	0.093305685
215	0x3e3ad8fe	0.18246838
216	0x3e8c13f2	0.27358967
217	0x3dae3e45	0.08507971
218	0x3de58731	0.11207426
219	0x3dcb3847	0.099228434
220	0x3d58f028	0.052963406
221	0x3e33b30f	0.17548774
222	0x3d567b81	0.052363876
223	0x3dd2d275	0.10294048
224	0x3e82e7b7	0.2556741
225	0xbe3cd6a9	-0.18441261
226	0xbd533fba	-0.051574446
227	0x3dbbd25a	0.09170981
228	0x3df8fbef	0.121574275
229	0xbdb2b0f0	-0.087251544
230	0xbd835b48	-0.06413895
231	0x3c15317f	0.009106039
232	0x3dadd200	0.0848732
233	0x3d4a8759	0.049445484
234	0xbd8c09aa	-0.06837781
235	0x3e02df1e	0.12780425
236	0xbc9cfbe4	-0.01916308
237	0x3c9d81cd	0.019226933
238	0xbc96ae65	-0.018393705
239	0xbe27b869	-0.1637894
240	0x3d365d38	0.044522494
241	0x3e52f78f	0.20602249
242	0xbd80bd5a	-0.06286116
243	0xbe35b97e	-0.17746541
244	0xbe3b9d53	-0.18321733
245	0xbe25ba6b	-0.16184394
246	0xbdd4b5c7	-0.10386234
247	0xbdcde771	-0.100539096
248	0xbb46f28a	-0.0030356967
249	0xbd0f5c1a	-0.034999944
250	0x3d90c56f	0.070689075
251	0x3dd60834	0.10450783
252	0xbe44c787	-0.19216739
253	0xbe36233f	-0.17786883
254	0xbe98813c	-0.29786098
255	0x3dd8c190	0.10583794

conv2.bias f4 [16]
0	0xbc9bc756	-0.01901595
1	0xbe5125b1	-0.20424534
2	0xbeac8a37	-0.336992
3	0x3ee0e40e	0.43923992
4	0xbe48100c	-0.19537371
5	0x3f0dc838	0.55383635
6	0xbd25fc1a	-0.040523626
7	0xbec94273	-0.3930851
8	0x3ec779ac	0.38960016
9	0xbf9f97a8	-1.2468157
10	0xbd1d38b9	-0.038384173
11	0x3e7db3d2	0.24775627
12	0xbecf8259	-0.40529135
13	0x3f27c874	0.6554024
14	0xbe9c3781	-0.30511096
15	0xbdce32f8	-0.10068315

fc1.weight f4 [120, 400]
0	0x3c73ea1c	0.014887359
1	0x3c72db15	0.014822741
2	0x3dbaeb42	0.09126903
3	0xbd452cb9	-0.048138354
4	0xbd284abd	-0.0410869
5	0x3bb73d81	0.0055920486
6	0x3d19e4f9	0.03757188
7	0xbd1049dd	-0.03522669
8	0xbcccefe6	-0.025016736
9	0x3c7b25e5	0.015328859
10	0xbb44dced	-0.0030038909
11	0xbc059b60	-0.00815472
12	0xbd85cfb5	-0.065337576
13	0xbdb1141c	-0.08646414
14	0x3d91bd13	0.07116141
15	0xbe036422	-0.12831166
16	0x3c1e5f24	0.009666238
17	0xbcd10697	-0.025515838
18	0x3cbee99a	0.02330475
19	0x3c8b7e28	0.01702793
20	0xbc6071ec	-0.013699036
21	0x3bf53c78	0.007484015
22	0x3c2cff59	0.0105589265
23	0x3dd77734	0.10520783
24	0x3d83e231	0.06439627
25	0xbda47a07	-0.08031087
26	0xbde806e7	-0.113294415
27	0xbc9b6a1f	-0.0189715
28	0xbad28061	-0.0016059988
29	0xbbf18216	-0.007370244
30	0xbc878980	-0.016545057
31	0xbd3a50e7	-0.04548731
32	0x3bd98b5e	0.0066389283
33	0xbd09afe1	-0.033614997
34	0xbdc77f49	-0.097410746
35	0x3d22256d	0.039586473
36	0x3cb0ff1d	0.021606022
37	0x3d93de6b	0.07220157
38	0xbc67926e	-0.014134033
39	0xbdaaa7e5	-0.083328046
40	0xbcf6ead8	-0.03014128
41	0x3d8a6036	0.06756632
42	0x3cc0365b	0.023463419
43	0x3dadfd40	0.08495569
44	0xbd379dbe	-0.04482817
45	0xbdffa48b	-0.12482556
46	0x3c87fffc	0.016601555
47	0x3dbc8326	0.09204702
48	0x3b0c95e2	0.0021451642
49	0xbd9ef066	-0.07760696
50	0xba3c3edc	-0.00071809976
51	0x3d0aef10	0.033919394
52	0x3d79a80c	0.060951278
53	0x3c86a25d	0.016434843
54	0xbd0fc3c1	-0.035098795
55	0x3be55c2d	0.0069995136
56	0xbb984aa0	-0.004647568
57	0x3c6eb3fb	0.014569278
58	0xbd9eb8de	-0.07750104
59	0xbcb30fc8	-0.021858111
60	0x3cf5997b	0.029980412
61	0x3dc6564e	0.0968443
62	0x3d8bf0df	0.06833052
63	0xbcd9d86a	-0.026592452
64	0x3da7592d	0.08171306
65	0x3d4e4a4b	0.05036382
66	0x3dd06dcc	0.10177192
67	0x3d23c4e4	0.03998269
68	0xbb6393cc	-0.0034725545
69	0x3dee3a46	0.116322085
70	0xbd9eb7f6	-0.077499315
71	0xbcd5610d	-0.026047254
72	0x3d42321b	0.047411066
73	0x3d896b25	0.06709889
74	0x3d925069	0.07144243
75	0xbd82a179	-0.06378455
76	0x3c744dec	0.014911156
77	0x3cd53eb6	0.02603088
78	0xbdbbc202	-0.091678634
79	0x3da61a1b	0.08110448
80	0xbc691bb2	-0.0142277945
81	0x3d375bc3	0.044765245
82	0xba6a8727	-0.0008946531
83	0x3d152e97	0.036421385
84	0xbe1cded0	-0.15319371
85	0x3d2443ca	0.04010371
86	0x3e0ef571	0.13960816
87	0x3a4b0352	0.000774433
88	0xbddfc989	-0.10927112
89	0x3c60b244	0.013714377
90	0x3d14dd9a	0.03634415
91	0xbb5d3210	-0.0033751763
92	0xbdfe13ab	-0.12406095
93	0xbd1a927f	-0.037737366
94	0x3d653c2a	0.05596558
95	0x3d7c0de4	0.061536685
96	0x3d1e540a	0.038654365
97	0xbcd61872	-0.026134703
98	0xbdce5ba5	-0.100760736
99	0xbd391a99	-0.04519138
100	0xbd81721b	-0.06320592
101	0x3dfa0f33	0.1220993
102	0x3dded523	0.10880496
103	0x3daf027f	0.08545398
104	0xbd89cd86	-0.067286536
105	0xbe0e87be	-0.13918969
106	0x3d534423	0.051578652
107	0x3d91a8a7	0.07112246
108	0x3c7afe7b	0.015319462
109	0xbcb1d985	-0.021710167
110	0x3d038276	0.03210684
111	0xbd548009	-0.051879916
112	0x3d3b9e5e	0.045805328
113	0xbd357df4	-0.04430957
114	0xbd33521f	-0.04377949
115	0xbacc6386	-0.0015593625
116	0xbd22dd64	-0.039761916
117	0x3d4b2653	0.049597096
118	0xbcfc69b7	-0.030812128
119	0xbe472a0d	-0.19449635
120	0xbdf8584a	-0.12126215
121	0xbcf098fa	-0.02936982
122	0xbe1255cf	-0.14290546
123	0xbce16b54	-0.027516998
124	0x3deabbff	0.11461639
125	0xbd699496	-0.05702647
126	0xbd8a4ddd	-0.067531325
127	0x3d22114f	0.039567288
128	0xbc7e72aa	-0.015530268
129	0x3d1cdd98	0.038297266
130	0xbd6621d6	-0.056184612
131	0xbb696a07	-0.0035616176
132	0xbd171917	-0.036889162
133	0x3b479bff	0.003045797
134	0xbc3c884f	-0.011507108
135	0xbd3f4f00	-0.0467062
136	0xbd10536c	-0.035235807
137	0x3e3b779e	0.18307349
138	0x3caca3e2	0.02107424
139	0xbdf4607c	-0.119324654
140	0x3caa6c48	0.020803586
141	0xbd47405a	-0.048645355
142	0x3c0bd43b	0.008534486
143	0xbd12d74c	-0.035849854
144	0xbdeb72a4	-0.11496475
145	0x3b3208fc	0.0027166
146	0xbbf8948d	-0.007586068
147	0x3bcbc8c9	0.006219004
148	0xbcdc728c	-0.026910089
149	0xbda47384	-0.08029845
150	0x3cebb1e8	0.028771356
151	0xbd86168a	-0.06547268
152	0x3d4834c9	0.048878465
153	0xbc1d140f	-0.009587302
154	0xbd454bde	-0.048168056
155	0xbbf42278	-0.007450398
156	0xbd110c35	-0.035412032
157	0xbd6f74e9	-0.058461104
158	0xbd61c374	-0.05511804
159	0x3cd2d2b3	0.025735235
160	0xbd2d5995	-0.04232176
161	0x3c211d30	0.009833619
162	0xbd5e3812	-0.05425269
163	0x3d0d2086	0.034454845
164	0x3ce5c514	0.028048076
165	0x3cd83c57	0.02639596
166	0xbcc212ab	-0.023690542
167	0xbd8a5180	-0.06753826
168	0x3d47d734	0.048789218
169	0x3c01a18f	0.007912054
170	0xbdb356cd	-0.0875679
171	0x39d51482	0.00040641805
172	0x3c86f13a	0.016472448
173	0xbd5e7398	-0.054309458
174	0xbb8b4c2c	-0.0042510238
175	0xbd27452e	-0.04083746
176	0x3d501b11	0.050807063
177	0xbc581af7	-0.013190023
178	0x3ca972b4	0.020684578
179	0x3b669992	0.003518675
180	0xbd3d1674	-0.04616399
181	0x3c45e1e0	0.012077779
182	0xbc566e6f	-0.013087853
183	0x3c2393ca	0.009983966
184	0xbdbc1b46	-0.091848895
185	0xbd9f1c30	-0.07769048
186	0x3ba7b8ba	0.0051184567
187	0x3da959cd	0.08269081
188	0x3e302db9	0.17204942
189	0x3dc8e532	0.098093405
190	0x3ccd8938	0.025089845
191	0x3be2c255	0.006920139
192	0x3ca8bf65	0.020599077
193	0xbcfbc814	-0.030735053
194	0xbde90f38	-0.11379856
195	0xbd78f7a0	-0.06078303
196	0xbb8f5a86	-0.004374805
197	0xbc8754bf	-0.016519902
198	0xbd1fee32	-0.03904552
199	0xbc17d576	-0.009267202
200	0xbe3efea0	-0.18651819
201	0x3d058202	0.03259469
202	0x3c053683	0.008130672
203	0x3d10644f	0.03525191
204	0x3d3d18af	0.04616612
205	0xbd987c58	-0.07445592
206	0xbbdf9543	-0.0068232133
207	0xbd3fe076	-0.046844922
208	0xbc26b7b5	-0.010175635
209	0xbc3f0e8b	-0.011661182
210	0x3d471281	0.04860163
211	0x3d46d1d7	0.048539963
212	0xbd9d6ff5	-0.0768737
213	0xbd961a1d	-0.073291995
214	0x3deb8f3c	0.11501929
215	0xbd4e0063	-0.050293338
216	0x3da08a52	0.078388825
217	0x3d85281c	0.06501791
218	0xbd8b0efd	-0.06789968
219	0x3be17944	0.006880911
220	0xbd515941	-0.05111051
221	0x3e1c18ff	0.1524391
222	0x3cdeef46	0.027213704
223	0xbd5c8656	-0.05383905
224	0x3cf4b559	0.02987163
225	0x3dff7944	0.124743015
226	0x3e54fad7	0.20798813
227	0x3d22e35d	0.03976761
228	0x3ddf6709	0.10908324
229	0x3d63bd5d	0.055600513
230	0x3c4d1c3c	0.012518939
231	0xbae5fb0c	-0.0017546131
232	0xbccc63c4	-0.024949916
233	0x3d01992e	0.031640224
234	0xbcc94c4a	-0.02457251
235	0xbc5c0de0	-0.013431042
236	0xbd2e630a	-0.04257492
237	0x3d09ef8b	0.03367571
238	0x3b9ff846	0.0048818914
239	0xbcdc9ddf	-0.026930748
240	0xbd905b8b	-0.070487104
241	0xbdb9f93d	-0.090807416
242	0x3dc14d38	0.094385564
243	0x3cd26c3d	0.025686378
244	0xbcabf67e	-0.02099156
245	0xbd606cb5	-0.05479117
246	0x3d5c22ad	0.053744007
247	0x3d5ce0a0	0.053925157
248	0x3d8e913c	0.06961295
249	0xbc0c84a9	-0.0085765505
250	0xbd6e9fdd	-0.058257926
251	0xbc3a5db9	-0.011374884
252	0x3d0df076	0.03465315
253	0xbdc3c269	-0.09558565
254	0x3d317d87	0.043332603
255	0xbc020812	-0.007936494

fc1.bias f4 [120]
0	0xbb8c4fbe	-0.004281967
1	0xbd8bab7a	-0.06819816
2	0xbd097894	-0.033562258
3	0xbb10d5b2	-0.0022100029
4	0x3e329186	0.17438325
5	0x3e07f265	0.1327606
6	0xbe1bce65	-0.15215452
7	0xbc93ef9f	-0.018058596
8	0xbd4db0e4	-0.050217524
9	0xbd389b58	-0.045070022
10	0xbdae329f	-0.08505749
11	0xbaa2a65b	-0.0012409197
12	0xbc019284	-0.007908467
13	0x3db5faff	0.08885764
14	0x3da39cfd	0.079889275
15	0xbcbd6e01	-0.023123743
16	0xbdfbbe97	-0.122922115
17	0xbc88333e	-0.016625997
18	0xbdca2e99	-0.09872169
19	0x3ddb8e7a	0.107205346
20	0x3d7ace75	0.06123205
21	0xbc701443	-0.014653268
22	0x3dbed5b7	0.093181066
23	0xbd4dc5b6	-0.05023738
24	0x3d2c4de9	0.04206649
25	0x3e23cb3e	0.159955
26	0xbca470f2	-0.020073388
27	0x3ba14f06	0.0049227504
28	0x3d284a13	0.041086268
29	0x3dc9ac06	0.09847264
30	0x3d8240b3	0.06359997
31	0x3d80fda0	0.06298375
32	0x3cddccbe	0.027075168
33	0x3e2b02d8	0.16700304
34	0xbd121394	-0.035663202
35	0x3c961299	0.018319415
36	0x3dfa6358	0.122259796
37	0xbcbf1722	-0.02332646
38	0xbd11802c	-0.035522625
39	0x3dd44c0d	0.10366068
40	0xbdb9aa4b	-0.09065684
41	0xbc9bd4a7	-0.019022299
42	0x3d3367fe	0.043800347
43	0x3cb7a814	0.022419013
44	0xbc8328b7	-0.016010625
45	0x3dc71aa0	0.09721875
46	0xbe663e56	-0.22484717
47	0x3d0cc5ec	0.03436844
48	0xbc83c72d	-0.016086185
49	0xbcfa545a	-0.0305578
50	0xbe83c100	-0.25733185
51	0xbd4709d4	-0.048593357
52	0xbcfdec15	-0.030996362
53	0x3d730639	0.059332106
54	0x3dbb7d6a	0.0915478
55	0x3d462a60	0.048380256
56	0x3dbaf309	0.091283865
57	0x3d2baa1d	0.04191028
58	0x3e282a4e	0.16422388
59	0xbd9cf416	-0.07663743
60	0x3c0b81cf	0.0085148355
61	0xbdcfd029	-0.10147125
62	0x3d6073c0	0.054797888
63	0xbc9b3b78	-0.018949255
64	0xbdc3bf54	-0.09557977
65	0x3da6166f	0.081097476
66	0x3d65192f	0.05593222
67	0xbbcae296	-0.006191562
68	0xbdafd456	-0.08585422
69	0xbe43d9d7	-0.19126068
70	0x3e3c99da	0.18418065
71	0xbd13c8d4	-0.036080196
72	0xbd8ecfb4	-0.0697321
73	0x3db01304	0.08597377
74	0x3d2a2484	0.04153873
75	0x3ce2b3f5	0.0276737
76	0x3c6ef772	0.014585363
77	0x3e22c5aa	0.15895715
78	0x3d6aac4a	0.057293214
79	0xbde7e123	-0.11322238
80	0x3c9f619e	0.019455727
81	0x3e172f6f	0.14764188
82	0x3d320163	0.043458354
83	0xbe0b6cc5	-0.13615711
84	0xbdf670e0	-0.12033248
85	0x3daeea37	0.08540767
86	0xbc85d6d1	-0.016337784
87	0xbd438c5f	-0.04774129
88	0xbdb2bf7c	-0.08727929
89	0x3e39016f	0.18066953
90	0x3dacd067	0.08438187
91	0xbcc4ac30	-0.024007887
92	0xbe63d13d	-0.22247787
93	0x3aac056a	0.0013124172
94	0xbd83ac62	-0.06429364
95	0xbc9d0e9e	-0.01917201
96	0x3d699b7a	0.05703304
97	0x3ddf83bb	0.109137975
98	0x3d7a3eca	0.061095037
99	0x3de453c5	0.1114879
100	0xbdf4991a	-0.11943264
101	0x3d3ca0ae	0.046051674
102	0xbb6d445b	-0.0036204073
103	0x3e52d3b8	0.20588577
104	0x3dbab358	0.09116238
105	0x3dc4f43e	0.09616898
106	0xbc969f85	-0.018386612
107	0x3e1c3023	0.15252738
108	0x3cbdade0	0.0231542
109	0xbd5b386c	-0.053520605
110	0x3d988066	0.07446365
111	0x3d0b3810	0.033989012
112	0x3e2477a5	0.16061266
113	0x3d01975a	0.03163848
114	0xbb343003	-0.0027494438
115	0x3da02368	0.07819253
116	0xbd3890fc	-0.045060143
117	0x3c1fe2b5	0.009758641
118	0xbc816d8c	-0.015799306
119	0x3d115ec8	0.03549078

fc2.weight f4 [84, 120]
0	0xbde6531a	-0.11246319
1	0xbe07a4da	-0.1324648
2	0x3d499725	0.04921641
3	0x3dc8a47c	0.09796998
4	0x3cac5533	0.02103672
5	0x3c4de565	0.012566899
6	0xbd9aebd6	-0.075645134
7	0xbd503e01	-0.05084038
8	0xbdbc32ce	-0.09189378
9	0x3d78561d	0.060629
10	0xbd0c7e44	-0.034300104
11	0x3e575cda	0.21031514
12	0xbd61bfd8	-0.055114597
13	0x3e1d6166	0.15369186
14	0xbcc64b70	-0.024205893
15	0xbcbfe86c	-0.023426257
16	0x3b3f8664	0.002922439
17	0xbe79339e	-0.24336097
18	0x3e0340b8	0.12817657
19	0xbcd3498c	-0.025791906
20	0xbd49333a	-0.04912112
21	0xbd04ee68	-0.032453924
22	0xbd083350	-0.03325206
23	0x3dde8a52	0.10866226
24	0x3dc079ea	0.09398253
25	0xbb4ce374	-0.0031263502
26	0x3daf3da6	0.085566804
27	0x3da68ec5	0.081327
28	0xbe8f5b51	-0.27999356
29	0xbb4a8d1a	-0.0030906857
30	0xbdc1aac6	-0.094564006
31	0x3e20891a	0.156773
32	0x3ea2edb7	0.31821987
33	0x3cda6d9c	0.026663594
34	0x3e12802c	0.14306706
35	0x3cbf4338	0.023347482
36	0xbdd4e1b7	-0.10394614
37	0x3bdaea56	0.006680767
38	0x3da4f482	0.08054449
39	0xbe5b564c	-0.21419638
40	0x3d357b2f	0.04430693
41	0x3d8f800e	0.07006846
42	0x3e02ae1f	0.12761734
43	0x3e4b5817	0.19857822
44	0x3dff990e	0.12480365
45	0x3dc19847	0.09452873
46	0x3cc9bdb3	0.024626588
47	0x3db2c61c	0.087291926
48	0x3d0730eb	0.033005636
49	0x3a82fcc7	0.0009993546
50	0x3d1987a2	0.037482865
51	0x3db852d8	0.09000176
52	0x3dc67ff7	0.09692376
53	0xbb4dafae	-0.003138523
54	0x3e1cc6c4	0.15310198
55	0x3e11be39	0.1423272
56	0xbd99e35d	-0.07514069
57	0xbd1f4e39	-0.03889296
58	0xbd3a3255	-0.045458157
59	0x3e1adbf7	0.15122972
60	0xbe1172f2	-0.14204004
61	0x3ddced4b	0.107874475
62	0xbcf58f75	-0.029975632
63	0xbc908c51	-0.017645033
64	0xbe018109	-0.1264688
65	0x3b255115	0.002522533
66	0xbd628dd0	-0.055311024
67	0x3dae8127	0.085207276
68	0x3e50d095	0.20392068
69	0xbd66c8ad	-0.056343723
70	0x3e1ca538	0.15297401
71	0x3e26843f	0.16261385
72	0x3ceb99e7	0.02875991
73	0xbe11038b	-0.14161508
74	0xbd97ab19	-0.07405681
75	0x3d16ed74	0.036847547
76	0x3de87922	0.11351229
77	0xbd653048	-0.055954248
78	0xbc82eeb7	-0.015982969
79	0xbace9ca5	-0.0015763236
80	0xbd0ad522	-0.033894666
81	0x3d1b564f	0.037924107
82	0x3ce1fac9	0.027585404
83	0xbd23842f	-0.039920982
84	0x3dd9e528	0.10639411
85	0x3d0c42ee	0.034243517
86	0x3cec5c34	0.02885256
87	0x3badcc57	0.0053039
88	0xbe5af2de	-0.21381709
89	0xbe81ea6d	-0.25374165
90	0xbd289864	-0.041160956
91	0xbe3c43f6	-0.183853
92	0x3df5fc73	0.120110415
93	0xbd8245d5	-0.06360976
94	0x3e1858b5	0.14877589
95	0x3dfaca12	0.12245573
96	0x3dad7e45	0.084713496
97	0x3d428035	0.04748555
98	0xbda27a9e	-0.079335436
99	0xbdeef2be	-0.11667393
100	0xbcc85bb3	-0.024457788
101	0x3d586a01	0.05283547
102	0x3c9ed81c	0.019390158
103	0x3cc3dd63	0.023909276
104	0xbc37a4a1	-0.011208684
105	0xbe324165	-0.17407759
106	0xbc827f75	-0.015929917
107	0x3ce1d6eb	0.027568301
108	0x3ce0ec3d	0.027456397
109	0x3d30c7ac	0.043159172
110	0x3d8fbe77	0.0701875
111	0x3e074f37	0.13213812
112	0xbe523715	-0.20528825
113	0xbb765a61	-0.003759049
114	0xbc12a9fa	-0.008951658
115	0x3e299238	0.16559684
116	0xbd886cbe	-0.06661366
117	0xbba98ee1	-0.005174503
118	0xbe0331c1	-0.12811948
119	0x3d80d04e	0.06289731
120	0x3d91c924	0.07118443
121	0xbe401d64	-0.18761212
122	0x3e0ac608	0.13552105
123	0x3e331cb3	0.17491417
124	0xbe0cce38	-0.13750541
125	0x3cd03b43	0.025418883
126	0x3e0a9664	0.13533932
127	0xbd7178b7	-0.058953013
128	0xbd420087	-0.047363784
129	0xbce6ae3d	-0.028159255
130	0xbbc83a99	-0.006110501
131	0x3cec7505	0.028864393
132	0xbcde838c	-0.027162336
133	0xbd124dd7	-0.035718765
134	0xbe438203	-0.19092564
135	0xbd27648a	-0.040867366
136	0xbd58c53c	-0.052922472
137	0xbd4ab77b	-0.049491387
138	0x3a7d6e44	0.0009667615
139	0x3d86173b	0.065473996
140	0x3ca97f38	0.020690545
141	0x3c2277bc	0.009916242
142	0xbd80923e	-0.062778935
143	0xbdcc8c91	-0.099877484
144	0x3e0ba0b8	0.13635528
145	0x3dfb5a32	0.12273063
146	0xbc4d0ec1	-0.012515725
147	0xbe05476c	-0.13015527
148	0x3de19225	0.11014203
149	0xbdc9fe0a	-0.09862907
150	0xbe37f190	-0.17963243
151	0xbe23e141	-0.16003896
152	0xbd349aa8	-0.044092804
153	0x3e11e409	0.14247145
154	0xbd721b29	-0.059107933
155	0xbe2949b8	-0.16532028
156	0x3cc3412e	0.023834791
157	0x3ca3595c	0.01994007
158	0xbda21437	-0.07914012
159	0xbd4936b5	-0.04912444
160	0xbb96ff2f	-0.004608057
161	0x3d1088f8	0.035286874
162	0xbd15c738	-0.036566943
163	0x3d04e446	0.03244426
164	0xb927e2fa	-0.00016010916
165	0x3e21d2ae	0.15803024
166	0x3e3c11c4	0.18366152
167	0x3d8d8f67	0.069121175
168	0xbd935579	-0.07194037
169	0xbd08ca41	-0.03339601
170	0xbd8b8317	-0.06812113
171	0xbdc9b86b	-0.09849628
172	0x3e445d1e	0.19176146
173	0x3d829655	0.0637633
174	0x3c4472ef	0.011990293
175	0x3dad7119	0.08468837
176	0x3c29d2be	0.010365186
177	0x3c990414	0.018678702
178	0x3dd6a77a	0.10481162
179	0x3dabc58b	0.08387288
180	0x3e06b90b	0.13156526
181	0xbcee61aa	-0.029099304
182	0x3df26d44	0.11837247
183	0xbc8888b2	-0.016666744
184	0x3da2fab6	0.079579756
185	0x3d6d4d1e	0.057934873
186	0x3e496253	0.19666414
187	0x3e54d6a6	0.20785007
188	0x3d84ec6a	0.06490405
189	0xbe6d7ab3	-0.23191337
190	0xbe1d5c21	-0.15367176
191	0x3da67460	0.081276655
192	0x3e079632	0.13240889
193	0x3c50e4ac	0.012749832
194	0xbbc58ceb	-0.0060287616
195	0x3c9adb08	0.01890327
196	0x3d4e3684	0.05034496
197	0xbe1d8227	-0.1538168
198	0xbc14988a	-0.009069571
199	0xbd93fc43	-0.072258495
200	0xbccebbc0	-0.02523601
201	0x3db4912f	0.08816754
202	0x3d1cf313	0.03831775
203	0x3dfd06df	0.12354826
204	0xbdab28f4	-0.083574206
205	0xbcf7610e	-0.030197646
206	0x3e911618	0.2833717
207	0xbd07a46d	-0.033115793
208	0x3dc02b99	0.093833156
209	0xbdbe7480	-0.09299564
210	0xbe38eb60	-0.18058538
211	0x3e16ee8c	0.14739436
212	0x3d9887b5	0.07447759
213	0xbdefb35d	-0.11704133
214	0x3db3e60d	0.08784113
215	0xbd893b63	-0.0670078
216	0xbe09d2b3	-0.13459282
217	0xbe139713	-0.14413099
218	0x3d109eac	0.03530757
219	0xbd9f757d	-0.07786081
220	0xbe08a54c	-0.13344306
221	0x3cb90467	0.022585107
222	0x3def889a	0.116959766
223	0xbca75f84	-0.020431288
224	0xbd85b337	-0.06528323
225	0x3d960c95	0.073266186
226	0x3df0f658	0.11765736
227	0x3da7ef7f	0.08199977
228	0xbe871ffd	-0.26391593
229	0xbdd30ca4	-0.103051454
230	0x3d766f9d	0.060165036
231	0xbd9acde2	-0.075588
232	0xbda07a8f	-0.07835876
233	0xbdbba773	-0.09162798
234	0xbe03b596	-0.12862238
235	0x3d22e822	0.03977216
236	0xbd9a42b5	-0.075322546
237	0x3cfa6ee5	0.030570457
238	0xbe5a24cd	-0.21303101
239	0xbdb43e22	-0.088009134
240	0x3dbbf7c5	0.09178118
241	0xbc32707f	-0.010891079
242	0xbd55eb49	-0.05222634
243	0x3dd73a69	0.10509188
244	0x3d2e9195	0.042619307
245	0x3e1a0efd	0.1504478
246	0x3c5737a3	0.013135823
247	0xbce8036a	-0.02832194
248	0x3bf37160	0.007429287
249	0xbd872a0d	-0.065998174
250	0xbc0ae68b	-0.008477817
251	0xbe291e28	-0.1651541
252	0xbdb12737	-0.08650058
253	0x3e011ffb	0.12609856
254	0x3d31b869	0.043388758
255	0x3c6b6234	0.014366675

fc2.bias f4 [84]
0	0xbe4cc38f	-0.19996475
1	0x3d0de781	0.034644607
2	0x3deaa085	0.11456398
3	0x3ddf8145	0.10913328
4	0x3c8acffb	0.016944876
5	0x3eb51096	0.35364217
6	0xbde7a851	-0.11311401
7	0x3d87bcd9	0.06627817
8	0xbdc31fc0	-0.0952754
9	0x3ddcfe73	0.1079072
10	0x3d2b6da4	0.04185261
11	0xbe1c6843	-0.15274148
12	0xbd6efb25	-0.05834498
13	0x3d53d3e9	0.051715765
14	0x3e0d004e	0.13769647
15	0x3e9edad9	0.31026343
16	0x3dbd28b6	0.092362806
17	0xbdf3f20c	-0.11911401
18	0x3ca09ed1	0.01960698
19	0x3d99ee20	0.07516122
20	0x3e099dda	0.13439122
21	0x3e32139f	0.17390297
22	0x3de53442	0.11191608
23	0xbd8672b1	-0.065648444
24	0x3e4b847a	0.19874755
25	0x3db6de2a	0.08929093
26	0x3c2d022f	0.010559603
27	0x3c994a9c	0.018712334
28	0x3da4d262	0.0804794
29	0xbe3f8657	-0.1870359
30	0x3e0a17f2	0.13485697
31	0xbd854128	-0.06506568
32	0x3e46f911	0.19430949
33	0xbe55d712	-0.20882824
34	0xbe3216fe	-0.17391583
35	0xbe0245f5	-0.12721999
36	0xbdf9ddaa	-0.12200482
37	0x3de60139	0.11230702
38	0x3e693064	0.22772366
39	0x3d1637c8	0.03667429
40	0x3db514b6	0.08841841
41	0xbd21f606	-0.039541267
42	0x3e455cd7	0.19273697
43	0xbd2410cf	-0.040055092
44	0x3ccc3ecc	0.024932288
45	0x3d508593	0.050908636
46	0xbdb7b3f5	-0.08969871
47	0xbd921358	-0.07132596
48	0xbc149c38	-0.009070449
49	0x3dcdf166	0.10055809
50	0x3dd98e59	0.10622854
51	0xbd27403e	-0.04083275
52	0xbdc7e293	-0.097600125
53	0xbe00c89c	-0.12576526
54	0xbe65a2dd	-0.22425409
55	0xbe007965	-0.12546308
56	0xbe18ac65	-0.14909513
57	0x3c08468f	0.008317604
58	0x3d4339a1	0.04766238
59	0xbbb76439	-0.0055966643
60	0x3d110d7a	0.035413243
61	0xbbde7a0a	-0.0067894505
62	0xbd685573	-0.056722116
63	0x3eafac07	0.34310934
64	0x3cf6a925	0.030109951
65	0x3cf31b64	0.029676147
66	0x3cd58524	0.026064463
67	0x3d026c10	0.031841338
68	0x3dd9d7fd	0.106368996
69	0xbdef9871	-0.11698998
70	0xbc006737	-0.007837108
71	0x3e885db8	0.26634002
72	0x3d06d345	0.032916326
73	0x3ea66a0d	0.32502785
74	0xbe3cb839	-0.1842965
75	0xbcd62fdd	-0.02614587
76	0x3b94c0c0	0.004539579
77	0x3c3d11ee	0.011539919
78	0xbe708c9e	-0.23491141
79	0xbd284924	-0.041085377
80	0xbdac5c9d	-0.08416102
81	0x3dc13118	0.09433192
82	0xbd9acda6	-0.075587556
83	0xbc486fb5	-0.012233664

fc3.weight f4 [10, 84]
0	0x3d98abdc	0.074546546
1	0xbf012eec	-0.5046222
2	0xbf162e09	-0.58663994
3	0xbdb043c7	-0.086066775
4	0xbe93b238	-0.28846908
5	0x3c053ab8	0.008131675
6	0x3d1e87c5	0.0387037
7	0x3dab2aa6	0.08357744
8	0x3e224921	0.15848209
9	0x3ed1cf49	0.4097846
10	0x3e1a7884	0.15085036
11	0x3e54056e	0.20705196
12	0x3d018497	0.03162059
13	0xbd02a9b8	-0.031900138
14	0xbe8d77dd	-0.2763051
15	0x3e5a79b7	0.21335493
16	0x3d742b7b	0.05961178
17	0x3e9918ce	0.29901737
18	0xbe8659b0	-0.262403
19	0xbd20df8c	-0.03927569
20	0xbda7ce74	-0.08193675
21	0x3eae458c	0.34037435
22	0x3edca8f6	0.43097657
23	0xbe07de52	-0.13268402
24	0x3dfe12cd	0.1240593
25	0x3e319044	0.17340189
26	0xbe9a416a	-0.30128032
27	0x3e3f8753	0.18703966
28	0x3de378e1	0.1110704
29	0xbe79f032	-0.24408033
30	0x3ed8f152	0.42371613
31	0x3e20c520	0.15700197
32	0x3f25d704	0.6478121
33	0xbeeea229	-0.46608093
34	0x3ea2372d	0.3168272
35	0x3e3739fd	0.17893215
36	0xbe9b8661	-0.3037596
37	0xbcc37fdf	-0.023864685
38	0xbf00cb26	-0.5030998
39	0xbde983ea	-0.11402114
40	0xbe9bc6f3	-0.30425224
41	0x3ed482d1	0.41506055
42	0x3e85d563	0.26139364
43	0x3da571b4	0.08078328
44	0x3e25bdce	0.16185686
45	0xbd8e4420	-0.069465876
46	0xbe202470	-0.156389
47	0xbe952774	-0.29131663
48	0xbd6b3586	-0.05742409
49	0xbd03a257	-0.03213724
50	0x3e2a9e9e	0.1666207
51	0xbe55a096	-0.2086204
52	0xbe5f9712	-0.21834973
53	0x3ea19957	0.31562302
54	0xbd5a0aa0	-0.05323279
55	0xbe505e9c	-0.2034859
56	0x3eaf4654	0.34233344
57	0xbde8c351	-0.11365379
58	0x3e52ef10	0.20599008
59	0xbe1a91c0	-0.15094662
60	0x3f06377f	0.5242843
61	0x3e49f5b5	0.19722636
62	0xbe325ec1	-0.17418958
63	0x3eaaa6da	0.33330423
64	0x3e974034	0.2954117
65	0x3de66ec3	0.11251595
66	0x3ead0a7d	0.33797064
67	0xbe294aab	-0.1653239
68	0xbe970067	-0.29492494
69	0xbe837ed5	-0.25682703
70	0xbf2d09cc	-0.67593074
71	0x3e22d42c	0.1590125
72	0x3e33fc87	0.175768
73	0x3e3a3f17	0.1818813
74	0xbe547075	-0.20746024
75	0xbdfa3f33	-0.122190855
76	0x3e134495	0.1438163
77	0x3e97fd4d	0.2968544
78	0xbd5bb1bb	-0.053636294
79	0x3d6c8f49	0.057753835
80	0x3cce1487	0.025156273
81	0x3e0ec456	0.13942084
82	0x3eb678ef	0.3563914
83	0x3ecf7b74	0.40523875
84	0x3d85991f	0.06523346
85	0xbe9da73e	-0.30791658
86	0xbe59aeb7	-0.21258055
87	0x3e02dd4a	0.12779728
88	0x3d807079	0.062714525
89	0xbf129a7a	-0.5726696
90	0xbcd3f1ae	-0.025872078
91	0x3e2416d6	0.16024336
92	0x3e8ea47b	0.27859864
93	0x3e37f806	0.17965707
94	0x3e0d1529	0.13777603
95	0xbe6ef2dd	-0.23334832
96	0x3d8cf2ab	0.06882223
97	0x3e248d6c	0.16069573
98	0xbea22cf3	-0.3167492
99	0xbeea61bc	-0.4577769
100	0x3d92d948	0.07170349
101	0xbdc3ca83	-0.095601104
102	0x3e8e21e9	0.27760246
103	0xbba8100a	-0.005128865
104	0x3d126c31	0.03574771
105	0x3d457173	0.048203897
106	0xbec19627	-0.3780987
107	0x3ebec658	0.372607
108	0x3bdc6ed4	0.006727079
109	0xbdc5cd28	-0.09658271
110	0xbe7268d2	-0.23672798
111	0xbee4c3a0	-0.446805
112	0xbe8d82f4	-0.27638972
113	0x3dda37d6	0.10655181
114	0xbecd9fdf	-0.40161034
115	0x3ef14679	0.4712408
116	0xbeac277d	-0.33623877
117	0xbe45192f	-0.19247888
118	0x3e3f9390	0.18708634
119	0x3edeac8b	0.43491015
120	0xbe7f784a	-0.2494823
121	0xbeb2da87	-0.34932348
122	0xbe78db4d	-0.24302407
123	0x3f27c9f7	0.6554255
124	0xbee0c874	-0.43902934
125	0x3be8f030	0.0071087107
126	0xbf02d4bf	-0.51105875
127	0x3e094359	0.13404597
128	0x3df0fd0d	0.117670156
129	0xbe56cbfe	-0.20976254
130	0xbe82f3c7	-0.25576612
131	0x3f038b51	0.51384455
132	0xbcd433d9	-0.02590363
133	0xbea1e65a	-0.31621057
134	0xbe1b3246	-0.15155897
135	0xbd6f110f	-0.058365878
136	0xbdd71b22	-0.10503222
137	0x3dce395a	0.10069533
138	0x3f05abd9	0.52215344
139	0x3dc276ae	0.094952926
140	0xbcfdcb28	-0.030980662
141	0xbdd431de	-0.10361074
142	0x3eb55f50	0.3542428
143	0xbe54b773	-0.20773105
144	0xbea5768a	-0.32317
145	0xbe022de7	-0.12712823
146	0x3ed82422	0.42215067
147	0x3eb1b685	0.34709564
148	0x3ed64f9b	0.4185761
149	0xbea79055	-0.32727304
150	0xbd9d985c	-0.07695076
151	0xbe4f8c42	-0.20268348
152	0x3e3640fc	0.17798227
153	0x3eaca539	0.33719805
154	0xbca4b888	-0.020107523
155	0xbda605f4	-0.08106604
156	0x3cb5d306	0.02219535
157	0xbe1ef9a1	-0.15524913
158	0x3ec46e23	0.38365278
159	0x3d7c6e8f	0.061628874
160	0xbd92c7da	-0.07167025
161	0xbf38c2f4	-0.72172475
162	0x3e0f5cf1	0.14000298
163	0x3e83e7d8	0.2576282
164	0x3d8c54a5	0.06852082
165	0xbd5f28b5	-0.05448218
166	0x3e2d6174	0.16931707
167	0xbda881d3	-0.08227887
168	0x3e3c1d92	0.18370655
169	0x3e847427	0.25869867
170	0x3d5b6d55	0.053571064
171	0x3e3b36b8	0.18282592
172	0xbdc81d2a	-0.097711876
173	0x3dae96c2	0.085248485
174	0x3e1c7a93	0.15281133
175	0x3f467e16	0.7753614
176	0x3e3f0151	0.18652846
177	0x3ca96f04	0.02068282
178	0x3ecb6be2	0.39730746
179	0x3e8a0f90	0.26964998
180	0xbb67c75d	-0.0035366633
181	0x3e7f8f34	0.24956971
182	0x3d3d2667	0.0461792
183	0xbecaf445	-0.39639488
184	0x3d4670f9	0.048447583
185	0xbecbe86b	-0.39825758
186	0xbde45ead	-0.111508705
187	0xbe9300d3	-0.28711566
188	0xbda63b22	-0.081167474
189	0xbcdfdb28	-0.027326182
190	0xbe85636e	-0.2605242
191	0xbe13cf88	-0.14434636
192	0x3eeb57ab	0.45965323
193	0xbf0eb8b6	-0.55750597
194	0x3f0d86a7	0.5528359
195	0x3e9c5196	0.30530995
196	0xbe3bd05b	-0.183412
197	0x3e136e13	0.14397459
198	0x3e2b1005	0.1670533
199	0x3d9a6467	0.075386815
200	0x3ef31532	0.47477108
201	0xbd2557ed	-0.040367056
202	0xbe060318	-0.13087118
203	0xbe3f98c8	-0.18710625
204	0xbdaebeb7	-0.0853247
205	0xbd95c117	-0.073122196
206	0xbeb3cdcf	-0.35117957
207	0xbe80ed7f	-0.25181195
208	0xbb8e3d19	-0.0043407795
209	0xbd18bfcc	-0.037292287
210	0x3e2861f0	0.1644361
211	0xbe6356eb	-0.22201125
212	0xbed79a39	-0.4210985
213	0xbe540141	-0.20703603
214	0x3dac356c	0.08408627
215	0xbec1792f	-0.37787768
216	0x3ecdd323	0.40200147
217	0xba694e58	-0.0008899919
218	0x3e34730c	0.17622012
219	0x3e94aba1	0.29037192
220	0x3e643535	0.22285922
221	0x3dbba686	0.09162621
222	0x3ebe324d	0.3714775
223	0x3e3dfe84	0.18554121
224	0x3ec1c733	0.3784729
225	0x3d7e3b5c	0.06206833
226	0xbde35eb6	-0.11102049
227	0x3d9ae96f	0.07564055
228	0x3ddc7f0e	0.10766421
229	0xbe2e10c5	-0.16998585
230	0x3dd64c3a	0.10463758
231	0x3e4062c4	0.18787676
232	0x3e092de1	0.13396408
233	0x3ee3b4f5	0.44473997
234	0xbd6f39db	-0.058404785
235	0x3edd5752	0.43230683
236	0x3ee77f9c	0.45214546
237	0xbea6589f	-0.32489488
238	0x3e30cf41	0.17266561
239	0x3eb94d36	0.3619172
240	0xbd978aeb	-0.073995434
241	0x3d1ed601	0.03877831
242	0xbea339f5	-0.31880155
243	0xbef12977	-0.47101948
244	0x3d907abc	0.0705466
245	0xbde96e2e	-0.11397968
246	0xbecb1f9a	-0.39672548
247	0xbd06cd1b	-0.032910448
248	0xbdbbf5f9	-0.09177775
249	0x3cef1eb2	0.029189441
250	0xbeb4b41a	-0.35293657
251	0xbeee6b3f	-0.46566197
252	0xbdc4ea44	-0.09614995
253	0xbe2bf988	-0.16794407
254	0xba864337	-0.001024342
255	0x3d8dc2f7	0.06921952

fc3.bias f4 [10]
0	0x3db5d755	0.08878962
1	0xbec13da6	-0.37742347
2	0x3daa03a6	0.08301477
3	0x3d9e8c20	0.077415705
4	0x3ee34314	0.44387114
5	0xbd854a30	-0.06508291
6	0xbd626e0c	-0.05528073
7	0xbe09b731	-0.13448788
8	0x3eb3e25b	0.35133633
9	0xbee8e944	-0.45490468
